// -----// IR Dump Before AFHandleFallbackPass (af-handle-fallback) //----- //
module {
  func.func @cuda_kernel_0(%arg0: tensor<?x2xi32> {input.fake_symbolic_shape = #tf_type.shape<137x2>, input.from = "7:0", input.has_one_use = true}, %arg1: tensor<?x4xf32> {input.fake_symbolic_shape = #tf_type.shape<137x4>, input.from = "4:0", input.has_one_use = true}, %arg2: tensor<?x2xi32> {input.fake_symbolic_shape = #tf_type.shape<137x2>, input.from = "8:0", input.has_one_use = true}, %arg3: tensor<?x4xf32> {input.fake_symbolic_shape = #tf_type.shape<137x4>, input.from = "5:0", input.has_one_use = true}, %arg4: tensor<?x2xi32> {input.fake_symbolic_shape = #tf_type.shape<137x2>, input.from = "9:0", input.has_one_use = true}, %arg5: tensor<?x4xf32> {input.fake_symbolic_shape = #tf_type.shape<137x4>, input.from = "6:0", input.has_one_use = true}) -> (tensor<?x4xf32>, tensor<?x4xf32>, tensor<?x4xf32>) attributes {BatchComputeFusion, _nano_compiler_group_idx = 0 : i64, _nano_compiler_op_idx = "10", _nano_compiler_v2, batch_compute_pattern = "FuseGatherV2OpPattern", llvm.emit_c_interface, tf_entry} {
    %cst = "tf.Const"() {_symbolic_output_shapes = [#tf_type.shape<>], device = "", value = dense<0> : tensor<i32>} : () -> tensor<i32>
    %cst_0 = "tf.Const"() {_symbolic_output_shapes = [#tf_type.shape<>], device = "", value = dense<1> : tensor<i32>} : () -> tensor<i32>
    %0 = "tf.Sum"(%arg0, %cst_0) {_symbolic_output_shapes = [#tf_type.shape<137>], device = "", keep_dims = false} : (tensor<?x2xi32>, tensor<i32>) -> tensor<?xi32>
    %1 = "tf.GatherV2"(%arg1, %0, %cst) {_symbolic_output_shapes = [#tf_type.shape<137x4>], batch_dims = 0 : i64, device = ""} : (tensor<?x4xf32>, tensor<?xi32>, tensor<i32>) -> tensor<?x4xf32>
    %2 = "tf.Sum"(%arg2, %cst_0) {_symbolic_output_shapes = [#tf_type.shape<137>], device = "", keep_dims = false} : (tensor<?x2xi32>, tensor<i32>) -> tensor<?xi32>
    %3 = "tf.GatherV2"(%arg3, %2, %cst) {_symbolic_output_shapes = [#tf_type.shape<137x4>], batch_dims = 0 : i64, device = ""} : (tensor<?x4xf32>, tensor<?xi32>, tensor<i32>) -> tensor<?x4xf32>
    %4 = "tf.Sum"(%arg4, %cst_0) {_symbolic_output_shapes = [#tf_type.shape<137>], device = "", keep_dims = false} : (tensor<?x2xi32>, tensor<i32>) -> tensor<?xi32>
    %5 = "tf.GatherV2"(%arg5, %4, %cst) {_symbolic_output_shapes = [#tf_type.shape<137x4>], batch_dims = 0 : i64, device = ""} : (tensor<?x4xf32>, tensor<?xi32>, tensor<i32>) -> tensor<?x4xf32>
    return %1, %3, %5 : tensor<?x4xf32>, tensor<?x4xf32>, tensor<?x4xf32>
  }
}


// -----// IR Dump After AFHandleFallbackPass (af-handle-fallback) //----- //
module {
  func.func @cuda_kernel_0(%arg0: tensor<?x2xi32> {input.fake_symbolic_shape = #tf_type.shape<137x2>, input.from = "7:0", input.has_one_use = true}, %arg1: tensor<?x4xf32> {input.fake_symbolic_shape = #tf_type.shape<137x4>, input.from = "4:0", input.has_one_use = true}, %arg2: tensor<?x2xi32> {input.fake_symbolic_shape = #tf_type.shape<137x2>, input.from = "8:0", input.has_one_use = true}, %arg3: tensor<?x4xf32> {input.fake_symbolic_shape = #tf_type.shape<137x4>, input.from = "5:0", input.has_one_use = true}, %arg4: tensor<?x2xi32> {input.fake_symbolic_shape = #tf_type.shape<137x2>, input.from = "9:0", input.has_one_use = true}, %arg5: tensor<?x4xf32> {input.fake_symbolic_shape = #tf_type.shape<137x4>, input.from = "6:0", input.has_one_use = true}) -> (tensor<?x4xf32>, tensor<?x4xf32>, tensor<?x4xf32>) attributes {BatchComputeFusion, _nano_compiler_group_idx = 0 : i64, _nano_compiler_op_idx = "10", _nano_compiler_v2, batch_compute_pattern = "FuseGatherV2OpPattern", llvm.emit_c_interface, tf_entry} {
    %cst = "tf.Const"() {_symbolic_output_shapes = [#tf_type.shape<>], device = "", value = dense<0> : tensor<i32>} : () -> tensor<i32>
    %cst_0 = "tf.Const"() {_symbolic_output_shapes = [#tf_type.shape<>], device = "", value = dense<1> : tensor<i32>} : () -> tensor<i32>
    %0 = "tf.Sum"(%arg0, %cst_0) {_symbolic_output_shapes = [#tf_type.shape<137>], device = "", keep_dims = false} : (tensor<?x2xi32>, tensor<i32>) -> tensor<?xi32>
    %1 = "tf.GatherV2"(%arg1, %0, %cst) {_symbolic_output_shapes = [#tf_type.shape<137x4>], batch_dims = 0 : i64, device = ""} : (tensor<?x4xf32>, tensor<?xi32>, tensor<i32>) -> tensor<?x4xf32>
    %2 = "tf.Sum"(%arg2, %cst_0) {_symbolic_output_shapes = [#tf_type.shape<137>], device = "", keep_dims = false} : (tensor<?x2xi32>, tensor<i32>) -> tensor<?xi32>
    %3 = "tf.GatherV2"(%arg3, %2, %cst) {_symbolic_output_shapes = [#tf_type.shape<137x4>], batch_dims = 0 : i64, device = ""} : (tensor<?x4xf32>, tensor<?xi32>, tensor<i32>) -> tensor<?x4xf32>
    %4 = "tf.Sum"(%arg4, %cst_0) {_symbolic_output_shapes = [#tf_type.shape<137>], device = "", keep_dims = false} : (tensor<?x2xi32>, tensor<i32>) -> tensor<?xi32>
    %5 = "tf.GatherV2"(%arg5, %4, %cst) {_symbolic_output_shapes = [#tf_type.shape<137x4>], batch_dims = 0 : i64, device = ""} : (tensor<?x4xf32>, tensor<?xi32>, tensor<i32>) -> tensor<?x4xf32>
    return %1, %3, %5 : tensor<?x4xf32>, tensor<?x4xf32>, tensor<?x4xf32>
  }
}


// -----// IR Dump Before LegalizeTFNoFallback (xla-legalize-tf-no-fallback) //----- //
func.func @cuda_kernel_0(%arg0: tensor<?x2xi32> {input.fake_symbolic_shape = #tf_type.shape<137x2>, input.from = "7:0", input.has_one_use = true}, %arg1: tensor<?x4xf32> {input.fake_symbolic_shape = #tf_type.shape<137x4>, input.from = "4:0", input.has_one_use = true}, %arg2: tensor<?x2xi32> {input.fake_symbolic_shape = #tf_type.shape<137x2>, input.from = "8:0", input.has_one_use = true}, %arg3: tensor<?x4xf32> {input.fake_symbolic_shape = #tf_type.shape<137x4>, input.from = "5:0", input.has_one_use = true}, %arg4: tensor<?x2xi32> {input.fake_symbolic_shape = #tf_type.shape<137x2>, input.from = "9:0", input.has_one_use = true}, %arg5: tensor<?x4xf32> {input.fake_symbolic_shape = #tf_type.shape<137x4>, input.from = "6:0", input.has_one_use = true}) -> (tensor<?x4xf32>, tensor<?x4xf32>, tensor<?x4xf32>) attributes {BatchComputeFusion, _nano_compiler_group_idx = 0 : i64, _nano_compiler_op_idx = "10", _nano_compiler_v2, batch_compute_pattern = "FuseGatherV2OpPattern", llvm.emit_c_interface, tf_entry} {
  %cst = "tf.Const"() {_symbolic_output_shapes = [#tf_type.shape<>], device = "", value = dense<0> : tensor<i32>} : () -> tensor<i32>
  %cst_0 = "tf.Const"() {_symbolic_output_shapes = [#tf_type.shape<>], device = "", value = dense<1> : tensor<i32>} : () -> tensor<i32>
  %0 = "tf.Sum"(%arg0, %cst_0) {_symbolic_output_shapes = [#tf_type.shape<137>], device = "", keep_dims = false} : (tensor<?x2xi32>, tensor<i32>) -> tensor<?xi32>
  %1 = "tf.GatherV2"(%arg1, %0, %cst) {_symbolic_output_shapes = [#tf_type.shape<137x4>], batch_dims = 0 : i64, device = ""} : (tensor<?x4xf32>, tensor<?xi32>, tensor<i32>) -> tensor<?x4xf32>
  %2 = "tf.Sum"(%arg2, %cst_0) {_symbolic_output_shapes = [#tf_type.shape<137>], device = "", keep_dims = false} : (tensor<?x2xi32>, tensor<i32>) -> tensor<?xi32>
  %3 = "tf.GatherV2"(%arg3, %2, %cst) {_symbolic_output_shapes = [#tf_type.shape<137x4>], batch_dims = 0 : i64, device = ""} : (tensor<?x4xf32>, tensor<?xi32>, tensor<i32>) -> tensor<?x4xf32>
  %4 = "tf.Sum"(%arg4, %cst_0) {_symbolic_output_shapes = [#tf_type.shape<137>], device = "", keep_dims = false} : (tensor<?x2xi32>, tensor<i32>) -> tensor<?xi32>
  %5 = "tf.GatherV2"(%arg5, %4, %cst) {_symbolic_output_shapes = [#tf_type.shape<137x4>], batch_dims = 0 : i64, device = ""} : (tensor<?x4xf32>, tensor<?xi32>, tensor<i32>) -> tensor<?x4xf32>
  return %1, %3, %5 : tensor<?x4xf32>, tensor<?x4xf32>, tensor<?x4xf32>
}

// -----// IR Dump After LegalizeTFNoFallback (xla-legalize-tf-no-fallback) //----- //
func.func @cuda_kernel_0(%arg0: tensor<?x2xi32> {input.fake_symbolic_shape = #tf_type.shape<137x2>, input.from = "7:0", input.has_one_use = true}, %arg1: tensor<?x4xf32> {input.fake_symbolic_shape = #tf_type.shape<137x4>, input.from = "4:0", input.has_one_use = true}, %arg2: tensor<?x2xi32> {input.fake_symbolic_shape = #tf_type.shape<137x2>, input.from = "8:0", input.has_one_use = true}, %arg3: tensor<?x4xf32> {input.fake_symbolic_shape = #tf_type.shape<137x4>, input.from = "5:0", input.has_one_use = true}, %arg4: tensor<?x2xi32> {input.fake_symbolic_shape = #tf_type.shape<137x2>, input.from = "9:0", input.has_one_use = true}, %arg5: tensor<?x4xf32> {input.fake_symbolic_shape = #tf_type.shape<137x4>, input.from = "6:0", input.has_one_use = true}) -> (tensor<?x4xf32>, tensor<?x4xf32>, tensor<?x4xf32>) attributes {BatchComputeFusion, _nano_compiler_group_idx = 0 : i64, _nano_compiler_op_idx = "10", _nano_compiler_v2, batch_compute_pattern = "FuseGatherV2OpPattern", llvm.emit_c_interface, tf_entry} {
  %0 = mhlo.constant dense<0> : tensor<i32>
  %1 = mhlo.constant dense<1> : tensor<i32>
  %2 = mhlo.convert %arg0 : tensor<?x2xi32>
  %3 = mhlo.constant dense<0> : tensor<i32>
  %4 = mhlo.reduce(%2 init: %3) applies mhlo.add across dimensions = [1] : (tensor<?x2xi32>, tensor<i32>) -> tensor<?xi32>
  %5 = mhlo.convert %4 : tensor<?xi32>
  %6 = "mhlo.torch_index_select"(%arg1, %5) {batch_dims = 0 : i64, dim = 0 : i64} : (tensor<?x4xf32>, tensor<?xi32>) -> tensor<?x4xf32>
  %7 = mhlo.convert %arg2 : tensor<?x2xi32>
  %8 = mhlo.constant dense<0> : tensor<i32>
  %9 = mhlo.reduce(%7 init: %8) applies mhlo.add across dimensions = [1] : (tensor<?x2xi32>, tensor<i32>) -> tensor<?xi32>
  %10 = mhlo.convert %9 : tensor<?xi32>
  %11 = "mhlo.torch_index_select"(%arg3, %10) {batch_dims = 0 : i64, dim = 0 : i64} : (tensor<?x4xf32>, tensor<?xi32>) -> tensor<?x4xf32>
  %12 = mhlo.convert %arg4 : tensor<?x2xi32>
  %13 = mhlo.constant dense<0> : tensor<i32>
  %14 = mhlo.reduce(%12 init: %13) applies mhlo.add across dimensions = [1] : (tensor<?x2xi32>, tensor<i32>) -> tensor<?xi32>
  %15 = mhlo.convert %14 : tensor<?xi32>
  %16 = "mhlo.torch_index_select"(%arg5, %15) {batch_dims = 0 : i64, dim = 0 : i64} : (tensor<?x4xf32>, tensor<?xi32>) -> tensor<?x4xf32>
  return %6, %11, %16 : tensor<?x4xf32>, tensor<?x4xf32>, tensor<?x4xf32>
}

// -----// IR Dump Before RankSpecializationClusterPass (mhlo-rank-specialization-cluster) //----- //
func.func @cuda_kernel_0(%arg0: tensor<?x2xi32> {input.fake_symbolic_shape = #tf_type.shape<137x2>, input.from = "7:0", input.has_one_use = true}, %arg1: tensor<?x4xf32> {input.fake_symbolic_shape = #tf_type.shape<137x4>, input.from = "4:0", input.has_one_use = true}, %arg2: tensor<?x2xi32> {input.fake_symbolic_shape = #tf_type.shape<137x2>, input.from = "8:0", input.has_one_use = true}, %arg3: tensor<?x4xf32> {input.fake_symbolic_shape = #tf_type.shape<137x4>, input.from = "5:0", input.has_one_use = true}, %arg4: tensor<?x2xi32> {input.fake_symbolic_shape = #tf_type.shape<137x2>, input.from = "9:0", input.has_one_use = true}, %arg5: tensor<?x4xf32> {input.fake_symbolic_shape = #tf_type.shape<137x4>, input.from = "6:0", input.has_one_use = true}) -> (tensor<?x4xf32>, tensor<?x4xf32>, tensor<?x4xf32>) attributes {BatchComputeFusion, _nano_compiler_group_idx = 0 : i64, _nano_compiler_op_idx = "10", _nano_compiler_v2, batch_compute_pattern = "FuseGatherV2OpPattern", llvm.emit_c_interface, tf_entry} {
  %0 = mhlo.constant dense<0> : tensor<i32>
  %1 = mhlo.constant dense<1> : tensor<i32>
  %2 = mhlo.convert %arg0 : tensor<?x2xi32>
  %3 = mhlo.constant dense<0> : tensor<i32>
  %4 = mhlo.reduce(%2 init: %3) applies mhlo.add across dimensions = [1] : (tensor<?x2xi32>, tensor<i32>) -> tensor<?xi32>
  %5 = mhlo.convert %4 : tensor<?xi32>
  %6 = "mhlo.torch_index_select"(%arg1, %5) {batch_dims = 0 : i64, dim = 0 : i64} : (tensor<?x4xf32>, tensor<?xi32>) -> tensor<?x4xf32>
  %7 = mhlo.convert %arg2 : tensor<?x2xi32>
  %8 = mhlo.constant dense<0> : tensor<i32>
  %9 = mhlo.reduce(%7 init: %8) applies mhlo.add across dimensions = [1] : (tensor<?x2xi32>, tensor<i32>) -> tensor<?xi32>
  %10 = mhlo.convert %9 : tensor<?xi32>
  %11 = "mhlo.torch_index_select"(%arg3, %10) {batch_dims = 0 : i64, dim = 0 : i64} : (tensor<?x4xf32>, tensor<?xi32>) -> tensor<?x4xf32>
  %12 = mhlo.convert %arg4 : tensor<?x2xi32>
  %13 = mhlo.constant dense<0> : tensor<i32>
  %14 = mhlo.reduce(%12 init: %13) applies mhlo.add across dimensions = [1] : (tensor<?x2xi32>, tensor<i32>) -> tensor<?xi32>
  %15 = mhlo.convert %14 : tensor<?xi32>
  %16 = "mhlo.torch_index_select"(%arg5, %15) {batch_dims = 0 : i64, dim = 0 : i64} : (tensor<?x4xf32>, tensor<?xi32>) -> tensor<?x4xf32>
  return %6, %11, %16 : tensor<?x4xf32>, tensor<?x4xf32>, tensor<?x4xf32>
}

// -----// IR Dump After RankSpecializationClusterPass (mhlo-rank-specialization-cluster) //----- //
func.func @cuda_kernel_0(%arg0: tensor<?x2xi32> {input.fake_symbolic_shape = #tf_type.shape<137x2>, input.from = "7:0", input.has_one_use = true}, %arg1: tensor<?x4xf32> {input.fake_symbolic_shape = #tf_type.shape<137x4>, input.from = "4:0", input.has_one_use = true}, %arg2: tensor<?x2xi32> {input.fake_symbolic_shape = #tf_type.shape<137x2>, input.from = "8:0", input.has_one_use = true}, %arg3: tensor<?x4xf32> {input.fake_symbolic_shape = #tf_type.shape<137x4>, input.from = "5:0", input.has_one_use = true}, %arg4: tensor<?x2xi32> {input.fake_symbolic_shape = #tf_type.shape<137x2>, input.from = "9:0", input.has_one_use = true}, %arg5: tensor<?x4xf32> {input.fake_symbolic_shape = #tf_type.shape<137x4>, input.from = "6:0", input.has_one_use = true}) -> (tensor<?x4xf32>, tensor<?x4xf32>, tensor<?x4xf32>) attributes {BatchComputeFusion, _nano_compiler_group_idx = 0 : i64, _nano_compiler_op_idx = "10", _nano_compiler_v2, batch_compute_pattern = "FuseGatherV2OpPattern", llvm.emit_c_interface, tf_entry} {
  %0 = mhlo.constant dense<0> : tensor<i32>
  %1 = mhlo.reduce(%arg0 init: %0) applies mhlo.add across dimensions = [1] : (tensor<?x2xi32>, tensor<i32>) -> tensor<?xi32>
  %2 = "mhlo.torch_index_select"(%arg1, %1) {batch_dims = 0 : i64, dim = 0 : i64} : (tensor<?x4xf32>, tensor<?xi32>) -> tensor<?x4xf32>
  %3 = mhlo.reduce(%arg2 init: %0) applies mhlo.add across dimensions = [1] : (tensor<?x2xi32>, tensor<i32>) -> tensor<?xi32>
  %4 = "mhlo.torch_index_select"(%arg3, %3) {batch_dims = 0 : i64, dim = 0 : i64} : (tensor<?x4xf32>, tensor<?xi32>) -> tensor<?x4xf32>
  %5 = mhlo.reduce(%arg4 init: %0) applies mhlo.add across dimensions = [1] : (tensor<?x2xi32>, tensor<i32>) -> tensor<?xi32>
  %6 = "mhlo.torch_index_select"(%arg5, %5) {batch_dims = 0 : i64, dim = 0 : i64} : (tensor<?x4xf32>, tensor<?xi32>) -> tensor<?x4xf32>
  return %2, %4, %6 : tensor<?x4xf32>, tensor<?x4xf32>, tensor<?x4xf32>
}

// -----// IR Dump Before RankSpecializationToSCFPass (mhlo-rank-specialization-to-scf) //----- //
func.func @cuda_kernel_0(%arg0: tensor<?x2xi32> {input.fake_symbolic_shape = #tf_type.shape<137x2>, input.from = "7:0", input.has_one_use = true}, %arg1: tensor<?x4xf32> {input.fake_symbolic_shape = #tf_type.shape<137x4>, input.from = "4:0", input.has_one_use = true}, %arg2: tensor<?x2xi32> {input.fake_symbolic_shape = #tf_type.shape<137x2>, input.from = "8:0", input.has_one_use = true}, %arg3: tensor<?x4xf32> {input.fake_symbolic_shape = #tf_type.shape<137x4>, input.from = "5:0", input.has_one_use = true}, %arg4: tensor<?x2xi32> {input.fake_symbolic_shape = #tf_type.shape<137x2>, input.from = "9:0", input.has_one_use = true}, %arg5: tensor<?x4xf32> {input.fake_symbolic_shape = #tf_type.shape<137x4>, input.from = "6:0", input.has_one_use = true}) -> (tensor<?x4xf32>, tensor<?x4xf32>, tensor<?x4xf32>) attributes {BatchComputeFusion, _nano_compiler_group_idx = 0 : i64, _nano_compiler_op_idx = "10", _nano_compiler_v2, batch_compute_pattern = "FuseGatherV2OpPattern", llvm.emit_c_interface, tf_entry} {
  %0 = mhlo.constant dense<0> : tensor<i32>
  %1 = mhlo.reduce(%arg0 init: %0) applies mhlo.add across dimensions = [1] : (tensor<?x2xi32>, tensor<i32>) -> tensor<?xi32>
  %2 = "mhlo.torch_index_select"(%arg1, %1) {batch_dims = 0 : i64, dim = 0 : i64} : (tensor<?x4xf32>, tensor<?xi32>) -> tensor<?x4xf32>
  %3 = mhlo.reduce(%arg2 init: %0) applies mhlo.add across dimensions = [1] : (tensor<?x2xi32>, tensor<i32>) -> tensor<?xi32>
  %4 = "mhlo.torch_index_select"(%arg3, %3) {batch_dims = 0 : i64, dim = 0 : i64} : (tensor<?x4xf32>, tensor<?xi32>) -> tensor<?x4xf32>
  %5 = mhlo.reduce(%arg4 init: %0) applies mhlo.add across dimensions = [1] : (tensor<?x2xi32>, tensor<i32>) -> tensor<?xi32>
  %6 = "mhlo.torch_index_select"(%arg5, %5) {batch_dims = 0 : i64, dim = 0 : i64} : (tensor<?x4xf32>, tensor<?xi32>) -> tensor<?x4xf32>
  return %2, %4, %6 : tensor<?x4xf32>, tensor<?x4xf32>, tensor<?x4xf32>
}

// -----// IR Dump After RankSpecializationToSCFPass (mhlo-rank-specialization-to-scf) //----- //
func.func @cuda_kernel_0(%arg0: tensor<?x2xi32> {input.fake_symbolic_shape = #tf_type.shape<137x2>, input.from = "7:0", input.has_one_use = true}, %arg1: tensor<?x4xf32> {input.fake_symbolic_shape = #tf_type.shape<137x4>, input.from = "4:0", input.has_one_use = true}, %arg2: tensor<?x2xi32> {input.fake_symbolic_shape = #tf_type.shape<137x2>, input.from = "8:0", input.has_one_use = true}, %arg3: tensor<?x4xf32> {input.fake_symbolic_shape = #tf_type.shape<137x4>, input.from = "5:0", input.has_one_use = true}, %arg4: tensor<?x2xi32> {input.fake_symbolic_shape = #tf_type.shape<137x2>, input.from = "9:0", input.has_one_use = true}, %arg5: tensor<?x4xf32> {input.fake_symbolic_shape = #tf_type.shape<137x4>, input.from = "6:0", input.has_one_use = true}) -> (tensor<?x4xf32>, tensor<?x4xf32>, tensor<?x4xf32>) attributes {BatchComputeFusion, _nano_compiler_group_idx = 0 : i64, _nano_compiler_op_idx = "10", _nano_compiler_v2, batch_compute_pattern = "FuseGatherV2OpPattern", llvm.emit_c_interface, tf_entry} {
  %0 = mhlo.constant dense<0> : tensor<i32>
  %1 = mhlo.reduce(%arg0 init: %0) applies mhlo.add across dimensions = [1] : (tensor<?x2xi32>, tensor<i32>) -> tensor<?xi32>
  %2 = "mhlo.torch_index_select"(%arg1, %1) {batch_dims = 0 : i64, dim = 0 : i64} : (tensor<?x4xf32>, tensor<?xi32>) -> tensor<?x4xf32>
  %3 = mhlo.reduce(%arg2 init: %0) applies mhlo.add across dimensions = [1] : (tensor<?x2xi32>, tensor<i32>) -> tensor<?xi32>
  %4 = "mhlo.torch_index_select"(%arg3, %3) {batch_dims = 0 : i64, dim = 0 : i64} : (tensor<?x4xf32>, tensor<?xi32>) -> tensor<?x4xf32>
  %5 = mhlo.reduce(%arg4 init: %0) applies mhlo.add across dimensions = [1] : (tensor<?x2xi32>, tensor<i32>) -> tensor<?xi32>
  %6 = "mhlo.torch_index_select"(%arg5, %5) {batch_dims = 0 : i64, dim = 0 : i64} : (tensor<?x4xf32>, tensor<?xi32>) -> tensor<?x4xf32>
  return %2, %4, %6 : tensor<?x4xf32>, tensor<?x4xf32>, tensor<?x4xf32>
}

// -----// IR Dump Before ChloLegalizeToHloPass (chlo-legalize-to-hlo) //----- //
func.func @cuda_kernel_0(%arg0: tensor<?x2xi32> {input.fake_symbolic_shape = #tf_type.shape<137x2>, input.from = "7:0", input.has_one_use = true}, %arg1: tensor<?x4xf32> {input.fake_symbolic_shape = #tf_type.shape<137x4>, input.from = "4:0", input.has_one_use = true}, %arg2: tensor<?x2xi32> {input.fake_symbolic_shape = #tf_type.shape<137x2>, input.from = "8:0", input.has_one_use = true}, %arg3: tensor<?x4xf32> {input.fake_symbolic_shape = #tf_type.shape<137x4>, input.from = "5:0", input.has_one_use = true}, %arg4: tensor<?x2xi32> {input.fake_symbolic_shape = #tf_type.shape<137x2>, input.from = "9:0", input.has_one_use = true}, %arg5: tensor<?x4xf32> {input.fake_symbolic_shape = #tf_type.shape<137x4>, input.from = "6:0", input.has_one_use = true}) -> (tensor<?x4xf32>, tensor<?x4xf32>, tensor<?x4xf32>) attributes {BatchComputeFusion, _nano_compiler_group_idx = 0 : i64, _nano_compiler_op_idx = "10", _nano_compiler_v2, batch_compute_pattern = "FuseGatherV2OpPattern", llvm.emit_c_interface, tf_entry} {
  %0 = mhlo.constant dense<0> : tensor<i32>
  %1 = mhlo.reduce(%arg0 init: %0) applies mhlo.add across dimensions = [1] : (tensor<?x2xi32>, tensor<i32>) -> tensor<?xi32>
  %2 = "mhlo.torch_index_select"(%arg1, %1) {batch_dims = 0 : i64, dim = 0 : i64} : (tensor<?x4xf32>, tensor<?xi32>) -> tensor<?x4xf32>
  %3 = mhlo.reduce(%arg2 init: %0) applies mhlo.add across dimensions = [1] : (tensor<?x2xi32>, tensor<i32>) -> tensor<?xi32>
  %4 = "mhlo.torch_index_select"(%arg3, %3) {batch_dims = 0 : i64, dim = 0 : i64} : (tensor<?x4xf32>, tensor<?xi32>) -> tensor<?x4xf32>
  %5 = mhlo.reduce(%arg4 init: %0) applies mhlo.add across dimensions = [1] : (tensor<?x2xi32>, tensor<i32>) -> tensor<?xi32>
  %6 = "mhlo.torch_index_select"(%arg5, %5) {batch_dims = 0 : i64, dim = 0 : i64} : (tensor<?x4xf32>, tensor<?xi32>) -> tensor<?x4xf32>
  return %2, %4, %6 : tensor<?x4xf32>, tensor<?x4xf32>, tensor<?x4xf32>
}

// -----// IR Dump After ChloLegalizeToHloPass (chlo-legalize-to-hlo) //----- //
func.func @cuda_kernel_0(%arg0: tensor<?x2xi32> {input.fake_symbolic_shape = #tf_type.shape<137x2>, input.from = "7:0", input.has_one_use = true}, %arg1: tensor<?x4xf32> {input.fake_symbolic_shape = #tf_type.shape<137x4>, input.from = "4:0", input.has_one_use = true}, %arg2: tensor<?x2xi32> {input.fake_symbolic_shape = #tf_type.shape<137x2>, input.from = "8:0", input.has_one_use = true}, %arg3: tensor<?x4xf32> {input.fake_symbolic_shape = #tf_type.shape<137x4>, input.from = "5:0", input.has_one_use = true}, %arg4: tensor<?x2xi32> {input.fake_symbolic_shape = #tf_type.shape<137x2>, input.from = "9:0", input.has_one_use = true}, %arg5: tensor<?x4xf32> {input.fake_symbolic_shape = #tf_type.shape<137x4>, input.from = "6:0", input.has_one_use = true}) -> (tensor<?x4xf32>, tensor<?x4xf32>, tensor<?x4xf32>) attributes {BatchComputeFusion, _nano_compiler_group_idx = 0 : i64, _nano_compiler_op_idx = "10", _nano_compiler_v2, batch_compute_pattern = "FuseGatherV2OpPattern", llvm.emit_c_interface, tf_entry} {
  %0 = mhlo.constant dense<0> : tensor<i32>
  %1 = mhlo.reduce(%arg0 init: %0) applies mhlo.add across dimensions = [1] : (tensor<?x2xi32>, tensor<i32>) -> tensor<?xi32>
  %2 = "mhlo.torch_index_select"(%arg1, %1) {batch_dims = 0 : i64, dim = 0 : i64} : (tensor<?x4xf32>, tensor<?xi32>) -> tensor<?x4xf32>
  %3 = mhlo.reduce(%arg2 init: %0) applies mhlo.add across dimensions = [1] : (tensor<?x2xi32>, tensor<i32>) -> tensor<?xi32>
  %4 = "mhlo.torch_index_select"(%arg3, %3) {batch_dims = 0 : i64, dim = 0 : i64} : (tensor<?x4xf32>, tensor<?xi32>) -> tensor<?x4xf32>
  %5 = mhlo.reduce(%arg4 init: %0) applies mhlo.add across dimensions = [1] : (tensor<?x2xi32>, tensor<i32>) -> tensor<?xi32>
  %6 = "mhlo.torch_index_select"(%arg5, %5) {batch_dims = 0 : i64, dim = 0 : i64} : (tensor<?x4xf32>, tensor<?xi32>) -> tensor<?x4xf32>
  return %2, %4, %6 : tensor<?x4xf32>, tensor<?x4xf32>, tensor<?x4xf32>
}

// -----// IR Dump Before Canonicalizer (canonicalize) //----- //
func.func @cuda_kernel_0(%arg0: tensor<?x2xi32> {input.fake_symbolic_shape = #tf_type.shape<137x2>, input.from = "7:0", input.has_one_use = true}, %arg1: tensor<?x4xf32> {input.fake_symbolic_shape = #tf_type.shape<137x4>, input.from = "4:0", input.has_one_use = true}, %arg2: tensor<?x2xi32> {input.fake_symbolic_shape = #tf_type.shape<137x2>, input.from = "8:0", input.has_one_use = true}, %arg3: tensor<?x4xf32> {input.fake_symbolic_shape = #tf_type.shape<137x4>, input.from = "5:0", input.has_one_use = true}, %arg4: tensor<?x2xi32> {input.fake_symbolic_shape = #tf_type.shape<137x2>, input.from = "9:0", input.has_one_use = true}, %arg5: tensor<?x4xf32> {input.fake_symbolic_shape = #tf_type.shape<137x4>, input.from = "6:0", input.has_one_use = true}) -> (tensor<?x4xf32>, tensor<?x4xf32>, tensor<?x4xf32>) attributes {BatchComputeFusion, _nano_compiler_group_idx = 0 : i64, _nano_compiler_op_idx = "10", _nano_compiler_v2, batch_compute_pattern = "FuseGatherV2OpPattern", llvm.emit_c_interface, tf_entry} {
  %0 = mhlo.constant dense<0> : tensor<i32>
  %1 = mhlo.reduce(%arg0 init: %0) applies mhlo.add across dimensions = [1] : (tensor<?x2xi32>, tensor<i32>) -> tensor<?xi32>
  %2 = "mhlo.torch_index_select"(%arg1, %1) {batch_dims = 0 : i64, dim = 0 : i64} : (tensor<?x4xf32>, tensor<?xi32>) -> tensor<?x4xf32>
  %3 = mhlo.reduce(%arg2 init: %0) applies mhlo.add across dimensions = [1] : (tensor<?x2xi32>, tensor<i32>) -> tensor<?xi32>
  %4 = "mhlo.torch_index_select"(%arg3, %3) {batch_dims = 0 : i64, dim = 0 : i64} : (tensor<?x4xf32>, tensor<?xi32>) -> tensor<?x4xf32>
  %5 = mhlo.reduce(%arg4 init: %0) applies mhlo.add across dimensions = [1] : (tensor<?x2xi32>, tensor<i32>) -> tensor<?xi32>
  %6 = "mhlo.torch_index_select"(%arg5, %5) {batch_dims = 0 : i64, dim = 0 : i64} : (tensor<?x4xf32>, tensor<?xi32>) -> tensor<?x4xf32>
  return %2, %4, %6 : tensor<?x4xf32>, tensor<?x4xf32>, tensor<?x4xf32>
}

// -----// IR Dump After Canonicalizer (canonicalize) //----- //
func.func @cuda_kernel_0(%arg0: tensor<?x2xi32> {input.fake_symbolic_shape = #tf_type.shape<137x2>, input.from = "7:0", input.has_one_use = true}, %arg1: tensor<?x4xf32> {input.fake_symbolic_shape = #tf_type.shape<137x4>, input.from = "4:0", input.has_one_use = true}, %arg2: tensor<?x2xi32> {input.fake_symbolic_shape = #tf_type.shape<137x2>, input.from = "8:0", input.has_one_use = true}, %arg3: tensor<?x4xf32> {input.fake_symbolic_shape = #tf_type.shape<137x4>, input.from = "5:0", input.has_one_use = true}, %arg4: tensor<?x2xi32> {input.fake_symbolic_shape = #tf_type.shape<137x2>, input.from = "9:0", input.has_one_use = true}, %arg5: tensor<?x4xf32> {input.fake_symbolic_shape = #tf_type.shape<137x4>, input.from = "6:0", input.has_one_use = true}) -> (tensor<?x4xf32>, tensor<?x4xf32>, tensor<?x4xf32>) attributes {BatchComputeFusion, _nano_compiler_group_idx = 0 : i64, _nano_compiler_op_idx = "10", _nano_compiler_v2, batch_compute_pattern = "FuseGatherV2OpPattern", llvm.emit_c_interface, tf_entry} {
  %0 = mhlo.constant dense<0> : tensor<i32>
  %1 = mhlo.reduce(%arg0 init: %0) applies mhlo.add across dimensions = [1] : (tensor<?x2xi32>, tensor<i32>) -> tensor<?xi32>
  %2 = "mhlo.torch_index_select"(%arg1, %1) {batch_dims = 0 : i64, dim = 0 : i64} : (tensor<?x4xf32>, tensor<?xi32>) -> tensor<?x4xf32>
  %3 = mhlo.reduce(%arg2 init: %0) applies mhlo.add across dimensions = [1] : (tensor<?x2xi32>, tensor<i32>) -> tensor<?xi32>
  %4 = "mhlo.torch_index_select"(%arg3, %3) {batch_dims = 0 : i64, dim = 0 : i64} : (tensor<?x4xf32>, tensor<?xi32>) -> tensor<?x4xf32>
  %5 = mhlo.reduce(%arg4 init: %0) applies mhlo.add across dimensions = [1] : (tensor<?x2xi32>, tensor<i32>) -> tensor<?xi32>
  %6 = "mhlo.torch_index_select"(%arg5, %5) {batch_dims = 0 : i64, dim = 0 : i64} : (tensor<?x4xf32>, tensor<?xi32>) -> tensor<?x4xf32>
  return %2, %4, %6 : tensor<?x4xf32>, tensor<?x4xf32>, tensor<?x4xf32>
}

// -----// IR Dump Before CSE (cse) //----- //
func.func @cuda_kernel_0(%arg0: tensor<?x2xi32> {input.fake_symbolic_shape = #tf_type.shape<137x2>, input.from = "7:0", input.has_one_use = true}, %arg1: tensor<?x4xf32> {input.fake_symbolic_shape = #tf_type.shape<137x4>, input.from = "4:0", input.has_one_use = true}, %arg2: tensor<?x2xi32> {input.fake_symbolic_shape = #tf_type.shape<137x2>, input.from = "8:0", input.has_one_use = true}, %arg3: tensor<?x4xf32> {input.fake_symbolic_shape = #tf_type.shape<137x4>, input.from = "5:0", input.has_one_use = true}, %arg4: tensor<?x2xi32> {input.fake_symbolic_shape = #tf_type.shape<137x2>, input.from = "9:0", input.has_one_use = true}, %arg5: tensor<?x4xf32> {input.fake_symbolic_shape = #tf_type.shape<137x4>, input.from = "6:0", input.has_one_use = true}) -> (tensor<?x4xf32>, tensor<?x4xf32>, tensor<?x4xf32>) attributes {BatchComputeFusion, _nano_compiler_group_idx = 0 : i64, _nano_compiler_op_idx = "10", _nano_compiler_v2, batch_compute_pattern = "FuseGatherV2OpPattern", llvm.emit_c_interface, tf_entry} {
  %0 = mhlo.constant dense<0> : tensor<i32>
  %1 = mhlo.reduce(%arg0 init: %0) applies mhlo.add across dimensions = [1] : (tensor<?x2xi32>, tensor<i32>) -> tensor<?xi32>
  %2 = "mhlo.torch_index_select"(%arg1, %1) {batch_dims = 0 : i64, dim = 0 : i64} : (tensor<?x4xf32>, tensor<?xi32>) -> tensor<?x4xf32>
  %3 = mhlo.reduce(%arg2 init: %0) applies mhlo.add across dimensions = [1] : (tensor<?x2xi32>, tensor<i32>) -> tensor<?xi32>
  %4 = "mhlo.torch_index_select"(%arg3, %3) {batch_dims = 0 : i64, dim = 0 : i64} : (tensor<?x4xf32>, tensor<?xi32>) -> tensor<?x4xf32>
  %5 = mhlo.reduce(%arg4 init: %0) applies mhlo.add across dimensions = [1] : (tensor<?x2xi32>, tensor<i32>) -> tensor<?xi32>
  %6 = "mhlo.torch_index_select"(%arg5, %5) {batch_dims = 0 : i64, dim = 0 : i64} : (tensor<?x4xf32>, tensor<?xi32>) -> tensor<?x4xf32>
  return %2, %4, %6 : tensor<?x4xf32>, tensor<?x4xf32>, tensor<?x4xf32>
}

// -----// IR Dump After CSE (cse) //----- //
func.func @cuda_kernel_0(%arg0: tensor<?x2xi32> {input.fake_symbolic_shape = #tf_type.shape<137x2>, input.from = "7:0", input.has_one_use = true}, %arg1: tensor<?x4xf32> {input.fake_symbolic_shape = #tf_type.shape<137x4>, input.from = "4:0", input.has_one_use = true}, %arg2: tensor<?x2xi32> {input.fake_symbolic_shape = #tf_type.shape<137x2>, input.from = "8:0", input.has_one_use = true}, %arg3: tensor<?x4xf32> {input.fake_symbolic_shape = #tf_type.shape<137x4>, input.from = "5:0", input.has_one_use = true}, %arg4: tensor<?x2xi32> {input.fake_symbolic_shape = #tf_type.shape<137x2>, input.from = "9:0", input.has_one_use = true}, %arg5: tensor<?x4xf32> {input.fake_symbolic_shape = #tf_type.shape<137x4>, input.from = "6:0", input.has_one_use = true}) -> (tensor<?x4xf32>, tensor<?x4xf32>, tensor<?x4xf32>) attributes {BatchComputeFusion, _nano_compiler_group_idx = 0 : i64, _nano_compiler_op_idx = "10", _nano_compiler_v2, batch_compute_pattern = "FuseGatherV2OpPattern", llvm.emit_c_interface, tf_entry} {
  %0 = mhlo.constant dense<0> : tensor<i32>
  %1 = mhlo.reduce(%arg0 init: %0) applies mhlo.add across dimensions = [1] : (tensor<?x2xi32>, tensor<i32>) -> tensor<?xi32>
  %2 = "mhlo.torch_index_select"(%arg1, %1) {batch_dims = 0 : i64, dim = 0 : i64} : (tensor<?x4xf32>, tensor<?xi32>) -> tensor<?x4xf32>
  %3 = mhlo.reduce(%arg2 init: %0) applies mhlo.add across dimensions = [1] : (tensor<?x2xi32>, tensor<i32>) -> tensor<?xi32>
  %4 = "mhlo.torch_index_select"(%arg3, %3) {batch_dims = 0 : i64, dim = 0 : i64} : (tensor<?x4xf32>, tensor<?xi32>) -> tensor<?x4xf32>
  %5 = mhlo.reduce(%arg4 init: %0) applies mhlo.add across dimensions = [1] : (tensor<?x2xi32>, tensor<i32>) -> tensor<?xi32>
  %6 = "mhlo.torch_index_select"(%arg5, %5) {batch_dims = 0 : i64, dim = 0 : i64} : (tensor<?x4xf32>, tensor<?xi32>) -> tensor<?x4xf32>
  return %2, %4, %6 : tensor<?x4xf32>, tensor<?x4xf32>, tensor<?x4xf32>
}

// -----// IR Dump Before Canonicalizer (canonicalize) //----- //
func.func @cuda_kernel_0(%arg0: tensor<?x2xi32> {input.fake_symbolic_shape = #tf_type.shape<137x2>, input.from = "7:0", input.has_one_use = true}, %arg1: tensor<?x4xf32> {input.fake_symbolic_shape = #tf_type.shape<137x4>, input.from = "4:0", input.has_one_use = true}, %arg2: tensor<?x2xi32> {input.fake_symbolic_shape = #tf_type.shape<137x2>, input.from = "8:0", input.has_one_use = true}, %arg3: tensor<?x4xf32> {input.fake_symbolic_shape = #tf_type.shape<137x4>, input.from = "5:0", input.has_one_use = true}, %arg4: tensor<?x2xi32> {input.fake_symbolic_shape = #tf_type.shape<137x2>, input.from = "9:0", input.has_one_use = true}, %arg5: tensor<?x4xf32> {input.fake_symbolic_shape = #tf_type.shape<137x4>, input.from = "6:0", input.has_one_use = true}) -> (tensor<?x4xf32>, tensor<?x4xf32>, tensor<?x4xf32>) attributes {BatchComputeFusion, _nano_compiler_group_idx = 0 : i64, _nano_compiler_op_idx = "10", _nano_compiler_v2, batch_compute_pattern = "FuseGatherV2OpPattern", llvm.emit_c_interface, tf_entry} {
  %0 = mhlo.constant dense<0> : tensor<i32>
  %1 = mhlo.reduce(%arg0 init: %0) applies mhlo.add across dimensions = [1] : (tensor<?x2xi32>, tensor<i32>) -> tensor<?xi32>
  %2 = "mhlo.torch_index_select"(%arg1, %1) {batch_dims = 0 : i64, dim = 0 : i64} : (tensor<?x4xf32>, tensor<?xi32>) -> tensor<?x4xf32>
  %3 = mhlo.reduce(%arg2 init: %0) applies mhlo.add across dimensions = [1] : (tensor<?x2xi32>, tensor<i32>) -> tensor<?xi32>
  %4 = "mhlo.torch_index_select"(%arg3, %3) {batch_dims = 0 : i64, dim = 0 : i64} : (tensor<?x4xf32>, tensor<?xi32>) -> tensor<?x4xf32>
  %5 = mhlo.reduce(%arg4 init: %0) applies mhlo.add across dimensions = [1] : (tensor<?x2xi32>, tensor<i32>) -> tensor<?xi32>
  %6 = "mhlo.torch_index_select"(%arg5, %5) {batch_dims = 0 : i64, dim = 0 : i64} : (tensor<?x4xf32>, tensor<?xi32>) -> tensor<?x4xf32>
  return %2, %4, %6 : tensor<?x4xf32>, tensor<?x4xf32>, tensor<?x4xf32>
}

// -----// IR Dump After Canonicalizer (canonicalize) //----- //
func.func @cuda_kernel_0(%arg0: tensor<?x2xi32> {input.fake_symbolic_shape = #tf_type.shape<137x2>, input.from = "7:0", input.has_one_use = true}, %arg1: tensor<?x4xf32> {input.fake_symbolic_shape = #tf_type.shape<137x4>, input.from = "4:0", input.has_one_use = true}, %arg2: tensor<?x2xi32> {input.fake_symbolic_shape = #tf_type.shape<137x2>, input.from = "8:0", input.has_one_use = true}, %arg3: tensor<?x4xf32> {input.fake_symbolic_shape = #tf_type.shape<137x4>, input.from = "5:0", input.has_one_use = true}, %arg4: tensor<?x2xi32> {input.fake_symbolic_shape = #tf_type.shape<137x2>, input.from = "9:0", input.has_one_use = true}, %arg5: tensor<?x4xf32> {input.fake_symbolic_shape = #tf_type.shape<137x4>, input.from = "6:0", input.has_one_use = true}) -> (tensor<?x4xf32>, tensor<?x4xf32>, tensor<?x4xf32>) attributes {BatchComputeFusion, _nano_compiler_group_idx = 0 : i64, _nano_compiler_op_idx = "10", _nano_compiler_v2, batch_compute_pattern = "FuseGatherV2OpPattern", llvm.emit_c_interface, tf_entry} {
  %0 = mhlo.constant dense<0> : tensor<i32>
  %1 = mhlo.reduce(%arg0 init: %0) applies mhlo.add across dimensions = [1] : (tensor<?x2xi32>, tensor<i32>) -> tensor<?xi32>
  %2 = "mhlo.torch_index_select"(%arg1, %1) {batch_dims = 0 : i64, dim = 0 : i64} : (tensor<?x4xf32>, tensor<?xi32>) -> tensor<?x4xf32>
  %3 = mhlo.reduce(%arg2 init: %0) applies mhlo.add across dimensions = [1] : (tensor<?x2xi32>, tensor<i32>) -> tensor<?xi32>
  %4 = "mhlo.torch_index_select"(%arg3, %3) {batch_dims = 0 : i64, dim = 0 : i64} : (tensor<?x4xf32>, tensor<?xi32>) -> tensor<?x4xf32>
  %5 = mhlo.reduce(%arg4 init: %0) applies mhlo.add across dimensions = [1] : (tensor<?x2xi32>, tensor<i32>) -> tensor<?xi32>
  %6 = "mhlo.torch_index_select"(%arg5, %5) {batch_dims = 0 : i64, dim = 0 : i64} : (tensor<?x4xf32>, tensor<?xi32>) -> tensor<?x4xf32>
  return %2, %4, %6 : tensor<?x4xf32>, tensor<?x4xf32>, tensor<?x4xf32>
}

// -----// IR Dump Before ShapeSimplification (shape-simplification) //----- //
func.func @cuda_kernel_0(%arg0: tensor<?x2xi32> {input.fake_symbolic_shape = #tf_type.shape<137x2>, input.from = "7:0", input.has_one_use = true}, %arg1: tensor<?x4xf32> {input.fake_symbolic_shape = #tf_type.shape<137x4>, input.from = "4:0", input.has_one_use = true}, %arg2: tensor<?x2xi32> {input.fake_symbolic_shape = #tf_type.shape<137x2>, input.from = "8:0", input.has_one_use = true}, %arg3: tensor<?x4xf32> {input.fake_symbolic_shape = #tf_type.shape<137x4>, input.from = "5:0", input.has_one_use = true}, %arg4: tensor<?x2xi32> {input.fake_symbolic_shape = #tf_type.shape<137x2>, input.from = "9:0", input.has_one_use = true}, %arg5: tensor<?x4xf32> {input.fake_symbolic_shape = #tf_type.shape<137x4>, input.from = "6:0", input.has_one_use = true}) -> (tensor<?x4xf32>, tensor<?x4xf32>, tensor<?x4xf32>) attributes {BatchComputeFusion, _nano_compiler_group_idx = 0 : i64, _nano_compiler_op_idx = "10", _nano_compiler_v2, batch_compute_pattern = "FuseGatherV2OpPattern", llvm.emit_c_interface, tf_entry} {
  %0 = mhlo.constant dense<0> : tensor<i32>
  %1 = mhlo.reduce(%arg0 init: %0) applies mhlo.add across dimensions = [1] : (tensor<?x2xi32>, tensor<i32>) -> tensor<?xi32>
  %2 = "mhlo.torch_index_select"(%arg1, %1) {batch_dims = 0 : i64, dim = 0 : i64} : (tensor<?x4xf32>, tensor<?xi32>) -> tensor<?x4xf32>
  %3 = mhlo.reduce(%arg2 init: %0) applies mhlo.add across dimensions = [1] : (tensor<?x2xi32>, tensor<i32>) -> tensor<?xi32>
  %4 = "mhlo.torch_index_select"(%arg3, %3) {batch_dims = 0 : i64, dim = 0 : i64} : (tensor<?x4xf32>, tensor<?xi32>) -> tensor<?x4xf32>
  %5 = mhlo.reduce(%arg4 init: %0) applies mhlo.add across dimensions = [1] : (tensor<?x2xi32>, tensor<i32>) -> tensor<?xi32>
  %6 = "mhlo.torch_index_select"(%arg5, %5) {batch_dims = 0 : i64, dim = 0 : i64} : (tensor<?x4xf32>, tensor<?xi32>) -> tensor<?x4xf32>
  return %2, %4, %6 : tensor<?x4xf32>, tensor<?x4xf32>, tensor<?x4xf32>
}

// -----// IR Dump After ShapeSimplification (shape-simplification) //----- //
func.func @cuda_kernel_0(%arg0: tensor<?x2xi32> {input.fake_symbolic_shape = #tf_type.shape<137x2>, input.from = "7:0", input.has_one_use = true}, %arg1: tensor<?x4xf32> {input.fake_symbolic_shape = #tf_type.shape<137x4>, input.from = "4:0", input.has_one_use = true}, %arg2: tensor<?x2xi32> {input.fake_symbolic_shape = #tf_type.shape<137x2>, input.from = "8:0", input.has_one_use = true}, %arg3: tensor<?x4xf32> {input.fake_symbolic_shape = #tf_type.shape<137x4>, input.from = "5:0", input.has_one_use = true}, %arg4: tensor<?x2xi32> {input.fake_symbolic_shape = #tf_type.shape<137x2>, input.from = "9:0", input.has_one_use = true}, %arg5: tensor<?x4xf32> {input.fake_symbolic_shape = #tf_type.shape<137x4>, input.from = "6:0", input.has_one_use = true}) -> (tensor<?x4xf32>, tensor<?x4xf32>, tensor<?x4xf32>) attributes {BatchComputeFusion, _nano_compiler_group_idx = 0 : i64, _nano_compiler_op_idx = "10", _nano_compiler_v2, batch_compute_pattern = "FuseGatherV2OpPattern", llvm.emit_c_interface, tf_entry} {
  %0 = mhlo.constant dense<0> : tensor<i32>
  %1 = mhlo.reduce(%arg0 init: %0) applies mhlo.add across dimensions = [1] : (tensor<?x2xi32>, tensor<i32>) -> tensor<?xi32>
  %2 = "mhlo.torch_index_select"(%arg1, %1) {batch_dims = 0 : i64, dim = 0 : i64} : (tensor<?x4xf32>, tensor<?xi32>) -> tensor<?x4xf32>
  %3 = mhlo.reduce(%arg2 init: %0) applies mhlo.add across dimensions = [1] : (tensor<?x2xi32>, tensor<i32>) -> tensor<?xi32>
  %4 = "mhlo.torch_index_select"(%arg3, %3) {batch_dims = 0 : i64, dim = 0 : i64} : (tensor<?x4xf32>, tensor<?xi32>) -> tensor<?x4xf32>
  %5 = mhlo.reduce(%arg4 init: %0) applies mhlo.add across dimensions = [1] : (tensor<?x2xi32>, tensor<i32>) -> tensor<?xi32>
  %6 = "mhlo.torch_index_select"(%arg5, %5) {batch_dims = 0 : i64, dim = 0 : i64} : (tensor<?x4xf32>, tensor<?xi32>) -> tensor<?x4xf32>
  return %2, %4, %6 : tensor<?x4xf32>, tensor<?x4xf32>, tensor<?x4xf32>
}

// -----// IR Dump Before MergeAssumingLimitOps (merge-assuming-limit-ops) //----- //
func.func @cuda_kernel_0(%arg0: tensor<?x2xi32> {input.fake_symbolic_shape = #tf_type.shape<137x2>, input.from = "7:0", input.has_one_use = true}, %arg1: tensor<?x4xf32> {input.fake_symbolic_shape = #tf_type.shape<137x4>, input.from = "4:0", input.has_one_use = true}, %arg2: tensor<?x2xi32> {input.fake_symbolic_shape = #tf_type.shape<137x2>, input.from = "8:0", input.has_one_use = true}, %arg3: tensor<?x4xf32> {input.fake_symbolic_shape = #tf_type.shape<137x4>, input.from = "5:0", input.has_one_use = true}, %arg4: tensor<?x2xi32> {input.fake_symbolic_shape = #tf_type.shape<137x2>, input.from = "9:0", input.has_one_use = true}, %arg5: tensor<?x4xf32> {input.fake_symbolic_shape = #tf_type.shape<137x4>, input.from = "6:0", input.has_one_use = true}) -> (tensor<?x4xf32>, tensor<?x4xf32>, tensor<?x4xf32>) attributes {BatchComputeFusion, _nano_compiler_group_idx = 0 : i64, _nano_compiler_op_idx = "10", _nano_compiler_v2, batch_compute_pattern = "FuseGatherV2OpPattern", llvm.emit_c_interface, tf_entry} {
  %0 = mhlo.constant dense<0> : tensor<i32>
  %1 = mhlo.reduce(%arg0 init: %0) applies mhlo.add across dimensions = [1] : (tensor<?x2xi32>, tensor<i32>) -> tensor<?xi32>
  %2 = "mhlo.torch_index_select"(%arg1, %1) {batch_dims = 0 : i64, dim = 0 : i64} : (tensor<?x4xf32>, tensor<?xi32>) -> tensor<?x4xf32>
  %3 = mhlo.reduce(%arg2 init: %0) applies mhlo.add across dimensions = [1] : (tensor<?x2xi32>, tensor<i32>) -> tensor<?xi32>
  %4 = "mhlo.torch_index_select"(%arg3, %3) {batch_dims = 0 : i64, dim = 0 : i64} : (tensor<?x4xf32>, tensor<?xi32>) -> tensor<?x4xf32>
  %5 = mhlo.reduce(%arg4 init: %0) applies mhlo.add across dimensions = [1] : (tensor<?x2xi32>, tensor<i32>) -> tensor<?xi32>
  %6 = "mhlo.torch_index_select"(%arg5, %5) {batch_dims = 0 : i64, dim = 0 : i64} : (tensor<?x4xf32>, tensor<?xi32>) -> tensor<?x4xf32>
  return %2, %4, %6 : tensor<?x4xf32>, tensor<?x4xf32>, tensor<?x4xf32>
}

// -----// IR Dump After MergeAssumingLimitOps (merge-assuming-limit-ops) //----- //
func.func @cuda_kernel_0(%arg0: tensor<?x2xi32> {input.fake_symbolic_shape = #tf_type.shape<137x2>, input.from = "7:0", input.has_one_use = true}, %arg1: tensor<?x4xf32> {input.fake_symbolic_shape = #tf_type.shape<137x4>, input.from = "4:0", input.has_one_use = true}, %arg2: tensor<?x2xi32> {input.fake_symbolic_shape = #tf_type.shape<137x2>, input.from = "8:0", input.has_one_use = true}, %arg3: tensor<?x4xf32> {input.fake_symbolic_shape = #tf_type.shape<137x4>, input.from = "5:0", input.has_one_use = true}, %arg4: tensor<?x2xi32> {input.fake_symbolic_shape = #tf_type.shape<137x2>, input.from = "9:0", input.has_one_use = true}, %arg5: tensor<?x4xf32> {input.fake_symbolic_shape = #tf_type.shape<137x4>, input.from = "6:0", input.has_one_use = true}) -> (tensor<?x4xf32>, tensor<?x4xf32>, tensor<?x4xf32>) attributes {BatchComputeFusion, _nano_compiler_group_idx = 0 : i64, _nano_compiler_op_idx = "10", _nano_compiler_v2, batch_compute_pattern = "FuseGatherV2OpPattern", llvm.emit_c_interface, tf_entry} {
  %0 = mhlo.constant dense<0> : tensor<i32>
  %1 = mhlo.reduce(%arg0 init: %0) applies mhlo.add across dimensions = [1] : (tensor<?x2xi32>, tensor<i32>) -> tensor<?xi32>
  %2 = "mhlo.torch_index_select"(%arg1, %1) {batch_dims = 0 : i64, dim = 0 : i64} : (tensor<?x4xf32>, tensor<?xi32>) -> tensor<?x4xf32>
  %3 = mhlo.reduce(%arg2 init: %0) applies mhlo.add across dimensions = [1] : (tensor<?x2xi32>, tensor<i32>) -> tensor<?xi32>
  %4 = "mhlo.torch_index_select"(%arg3, %3) {batch_dims = 0 : i64, dim = 0 : i64} : (tensor<?x4xf32>, tensor<?xi32>) -> tensor<?x4xf32>
  %5 = mhlo.reduce(%arg4 init: %0) applies mhlo.add across dimensions = [1] : (tensor<?x2xi32>, tensor<i32>) -> tensor<?xi32>
  %6 = "mhlo.torch_index_select"(%arg5, %5) {batch_dims = 0 : i64, dim = 0 : i64} : (tensor<?x4xf32>, tensor<?xi32>) -> tensor<?x4xf32>
  return %2, %4, %6 : tensor<?x4xf32>, tensor<?x4xf32>, tensor<?x4xf32>
}

// -----// IR Dump Before Canonicalizer (canonicalize) //----- //
func.func @cuda_kernel_0(%arg0: tensor<?x2xi32> {input.fake_symbolic_shape = #tf_type.shape<137x2>, input.from = "7:0", input.has_one_use = true}, %arg1: tensor<?x4xf32> {input.fake_symbolic_shape = #tf_type.shape<137x4>, input.from = "4:0", input.has_one_use = true}, %arg2: tensor<?x2xi32> {input.fake_symbolic_shape = #tf_type.shape<137x2>, input.from = "8:0", input.has_one_use = true}, %arg3: tensor<?x4xf32> {input.fake_symbolic_shape = #tf_type.shape<137x4>, input.from = "5:0", input.has_one_use = true}, %arg4: tensor<?x2xi32> {input.fake_symbolic_shape = #tf_type.shape<137x2>, input.from = "9:0", input.has_one_use = true}, %arg5: tensor<?x4xf32> {input.fake_symbolic_shape = #tf_type.shape<137x4>, input.from = "6:0", input.has_one_use = true}) -> (tensor<?x4xf32>, tensor<?x4xf32>, tensor<?x4xf32>) attributes {BatchComputeFusion, _nano_compiler_group_idx = 0 : i64, _nano_compiler_op_idx = "10", _nano_compiler_v2, batch_compute_pattern = "FuseGatherV2OpPattern", llvm.emit_c_interface, tf_entry} {
  %0 = mhlo.constant dense<0> : tensor<i32>
  %1 = mhlo.reduce(%arg0 init: %0) applies mhlo.add across dimensions = [1] : (tensor<?x2xi32>, tensor<i32>) -> tensor<?xi32>
  %2 = "mhlo.torch_index_select"(%arg1, %1) {batch_dims = 0 : i64, dim = 0 : i64} : (tensor<?x4xf32>, tensor<?xi32>) -> tensor<?x4xf32>
  %3 = mhlo.reduce(%arg2 init: %0) applies mhlo.add across dimensions = [1] : (tensor<?x2xi32>, tensor<i32>) -> tensor<?xi32>
  %4 = "mhlo.torch_index_select"(%arg3, %3) {batch_dims = 0 : i64, dim = 0 : i64} : (tensor<?x4xf32>, tensor<?xi32>) -> tensor<?x4xf32>
  %5 = mhlo.reduce(%arg4 init: %0) applies mhlo.add across dimensions = [1] : (tensor<?x2xi32>, tensor<i32>) -> tensor<?xi32>
  %6 = "mhlo.torch_index_select"(%arg5, %5) {batch_dims = 0 : i64, dim = 0 : i64} : (tensor<?x4xf32>, tensor<?xi32>) -> tensor<?x4xf32>
  return %2, %4, %6 : tensor<?x4xf32>, tensor<?x4xf32>, tensor<?x4xf32>
}

// -----// IR Dump After Canonicalizer (canonicalize) //----- //
func.func @cuda_kernel_0(%arg0: tensor<?x2xi32> {input.fake_symbolic_shape = #tf_type.shape<137x2>, input.from = "7:0", input.has_one_use = true}, %arg1: tensor<?x4xf32> {input.fake_symbolic_shape = #tf_type.shape<137x4>, input.from = "4:0", input.has_one_use = true}, %arg2: tensor<?x2xi32> {input.fake_symbolic_shape = #tf_type.shape<137x2>, input.from = "8:0", input.has_one_use = true}, %arg3: tensor<?x4xf32> {input.fake_symbolic_shape = #tf_type.shape<137x4>, input.from = "5:0", input.has_one_use = true}, %arg4: tensor<?x2xi32> {input.fake_symbolic_shape = #tf_type.shape<137x2>, input.from = "9:0", input.has_one_use = true}, %arg5: tensor<?x4xf32> {input.fake_symbolic_shape = #tf_type.shape<137x4>, input.from = "6:0", input.has_one_use = true}) -> (tensor<?x4xf32>, tensor<?x4xf32>, tensor<?x4xf32>) attributes {BatchComputeFusion, _nano_compiler_group_idx = 0 : i64, _nano_compiler_op_idx = "10", _nano_compiler_v2, batch_compute_pattern = "FuseGatherV2OpPattern", llvm.emit_c_interface, tf_entry} {
  %0 = mhlo.constant dense<0> : tensor<i32>
  %1 = mhlo.reduce(%arg0 init: %0) applies mhlo.add across dimensions = [1] : (tensor<?x2xi32>, tensor<i32>) -> tensor<?xi32>
  %2 = "mhlo.torch_index_select"(%arg1, %1) {batch_dims = 0 : i64, dim = 0 : i64} : (tensor<?x4xf32>, tensor<?xi32>) -> tensor<?x4xf32>
  %3 = mhlo.reduce(%arg2 init: %0) applies mhlo.add across dimensions = [1] : (tensor<?x2xi32>, tensor<i32>) -> tensor<?xi32>
  %4 = "mhlo.torch_index_select"(%arg3, %3) {batch_dims = 0 : i64, dim = 0 : i64} : (tensor<?x4xf32>, tensor<?xi32>) -> tensor<?x4xf32>
  %5 = mhlo.reduce(%arg4 init: %0) applies mhlo.add across dimensions = [1] : (tensor<?x2xi32>, tensor<i32>) -> tensor<?xi32>
  %6 = "mhlo.torch_index_select"(%arg5, %5) {batch_dims = 0 : i64, dim = 0 : i64} : (tensor<?x4xf32>, tensor<?xi32>) -> tensor<?x4xf32>
  return %2, %4, %6 : tensor<?x4xf32>, tensor<?x4xf32>, tensor<?x4xf32>
}

// -----// IR Dump Before CSE (cse) //----- //
func.func @cuda_kernel_0(%arg0: tensor<?x2xi32> {input.fake_symbolic_shape = #tf_type.shape<137x2>, input.from = "7:0", input.has_one_use = true}, %arg1: tensor<?x4xf32> {input.fake_symbolic_shape = #tf_type.shape<137x4>, input.from = "4:0", input.has_one_use = true}, %arg2: tensor<?x2xi32> {input.fake_symbolic_shape = #tf_type.shape<137x2>, input.from = "8:0", input.has_one_use = true}, %arg3: tensor<?x4xf32> {input.fake_symbolic_shape = #tf_type.shape<137x4>, input.from = "5:0", input.has_one_use = true}, %arg4: tensor<?x2xi32> {input.fake_symbolic_shape = #tf_type.shape<137x2>, input.from = "9:0", input.has_one_use = true}, %arg5: tensor<?x4xf32> {input.fake_symbolic_shape = #tf_type.shape<137x4>, input.from = "6:0", input.has_one_use = true}) -> (tensor<?x4xf32>, tensor<?x4xf32>, tensor<?x4xf32>) attributes {BatchComputeFusion, _nano_compiler_group_idx = 0 : i64, _nano_compiler_op_idx = "10", _nano_compiler_v2, batch_compute_pattern = "FuseGatherV2OpPattern", llvm.emit_c_interface, tf_entry} {
  %0 = mhlo.constant dense<0> : tensor<i32>
  %1 = mhlo.reduce(%arg0 init: %0) applies mhlo.add across dimensions = [1] : (tensor<?x2xi32>, tensor<i32>) -> tensor<?xi32>
  %2 = "mhlo.torch_index_select"(%arg1, %1) {batch_dims = 0 : i64, dim = 0 : i64} : (tensor<?x4xf32>, tensor<?xi32>) -> tensor<?x4xf32>
  %3 = mhlo.reduce(%arg2 init: %0) applies mhlo.add across dimensions = [1] : (tensor<?x2xi32>, tensor<i32>) -> tensor<?xi32>
  %4 = "mhlo.torch_index_select"(%arg3, %3) {batch_dims = 0 : i64, dim = 0 : i64} : (tensor<?x4xf32>, tensor<?xi32>) -> tensor<?x4xf32>
  %5 = mhlo.reduce(%arg4 init: %0) applies mhlo.add across dimensions = [1] : (tensor<?x2xi32>, tensor<i32>) -> tensor<?xi32>
  %6 = "mhlo.torch_index_select"(%arg5, %5) {batch_dims = 0 : i64, dim = 0 : i64} : (tensor<?x4xf32>, tensor<?xi32>) -> tensor<?x4xf32>
  return %2, %4, %6 : tensor<?x4xf32>, tensor<?x4xf32>, tensor<?x4xf32>
}

// -----// IR Dump After CSE (cse) //----- //
func.func @cuda_kernel_0(%arg0: tensor<?x2xi32> {input.fake_symbolic_shape = #tf_type.shape<137x2>, input.from = "7:0", input.has_one_use = true}, %arg1: tensor<?x4xf32> {input.fake_symbolic_shape = #tf_type.shape<137x4>, input.from = "4:0", input.has_one_use = true}, %arg2: tensor<?x2xi32> {input.fake_symbolic_shape = #tf_type.shape<137x2>, input.from = "8:0", input.has_one_use = true}, %arg3: tensor<?x4xf32> {input.fake_symbolic_shape = #tf_type.shape<137x4>, input.from = "5:0", input.has_one_use = true}, %arg4: tensor<?x2xi32> {input.fake_symbolic_shape = #tf_type.shape<137x2>, input.from = "9:0", input.has_one_use = true}, %arg5: tensor<?x4xf32> {input.fake_symbolic_shape = #tf_type.shape<137x4>, input.from = "6:0", input.has_one_use = true}) -> (tensor<?x4xf32>, tensor<?x4xf32>, tensor<?x4xf32>) attributes {BatchComputeFusion, _nano_compiler_group_idx = 0 : i64, _nano_compiler_op_idx = "10", _nano_compiler_v2, batch_compute_pattern = "FuseGatherV2OpPattern", llvm.emit_c_interface, tf_entry} {
  %0 = mhlo.constant dense<0> : tensor<i32>
  %1 = mhlo.reduce(%arg0 init: %0) applies mhlo.add across dimensions = [1] : (tensor<?x2xi32>, tensor<i32>) -> tensor<?xi32>
  %2 = "mhlo.torch_index_select"(%arg1, %1) {batch_dims = 0 : i64, dim = 0 : i64} : (tensor<?x4xf32>, tensor<?xi32>) -> tensor<?x4xf32>
  %3 = mhlo.reduce(%arg2 init: %0) applies mhlo.add across dimensions = [1] : (tensor<?x2xi32>, tensor<i32>) -> tensor<?xi32>
  %4 = "mhlo.torch_index_select"(%arg3, %3) {batch_dims = 0 : i64, dim = 0 : i64} : (tensor<?x4xf32>, tensor<?xi32>) -> tensor<?x4xf32>
  %5 = mhlo.reduce(%arg4 init: %0) applies mhlo.add across dimensions = [1] : (tensor<?x2xi32>, tensor<i32>) -> tensor<?xi32>
  %6 = "mhlo.torch_index_select"(%arg5, %5) {batch_dims = 0 : i64, dim = 0 : i64} : (tensor<?x4xf32>, tensor<?xi32>) -> tensor<?x4xf32>
  return %2, %4, %6 : tensor<?x4xf32>, tensor<?x4xf32>, tensor<?x4xf32>
}

// -----// IR Dump Before BroadcastPropagationPass (mhlo-broadcast-propagation) //----- //
func.func @cuda_kernel_0(%arg0: tensor<?x2xi32> {input.fake_symbolic_shape = #tf_type.shape<137x2>, input.from = "7:0", input.has_one_use = true}, %arg1: tensor<?x4xf32> {input.fake_symbolic_shape = #tf_type.shape<137x4>, input.from = "4:0", input.has_one_use = true}, %arg2: tensor<?x2xi32> {input.fake_symbolic_shape = #tf_type.shape<137x2>, input.from = "8:0", input.has_one_use = true}, %arg3: tensor<?x4xf32> {input.fake_symbolic_shape = #tf_type.shape<137x4>, input.from = "5:0", input.has_one_use = true}, %arg4: tensor<?x2xi32> {input.fake_symbolic_shape = #tf_type.shape<137x2>, input.from = "9:0", input.has_one_use = true}, %arg5: tensor<?x4xf32> {input.fake_symbolic_shape = #tf_type.shape<137x4>, input.from = "6:0", input.has_one_use = true}) -> (tensor<?x4xf32>, tensor<?x4xf32>, tensor<?x4xf32>) attributes {BatchComputeFusion, _nano_compiler_group_idx = 0 : i64, _nano_compiler_op_idx = "10", _nano_compiler_v2, batch_compute_pattern = "FuseGatherV2OpPattern", llvm.emit_c_interface, tf_entry} {
  %0 = mhlo.constant dense<0> : tensor<i32>
  %1 = mhlo.reduce(%arg0 init: %0) applies mhlo.add across dimensions = [1] : (tensor<?x2xi32>, tensor<i32>) -> tensor<?xi32>
  %2 = "mhlo.torch_index_select"(%arg1, %1) {batch_dims = 0 : i64, dim = 0 : i64} : (tensor<?x4xf32>, tensor<?xi32>) -> tensor<?x4xf32>
  %3 = mhlo.reduce(%arg2 init: %0) applies mhlo.add across dimensions = [1] : (tensor<?x2xi32>, tensor<i32>) -> tensor<?xi32>
  %4 = "mhlo.torch_index_select"(%arg3, %3) {batch_dims = 0 : i64, dim = 0 : i64} : (tensor<?x4xf32>, tensor<?xi32>) -> tensor<?x4xf32>
  %5 = mhlo.reduce(%arg4 init: %0) applies mhlo.add across dimensions = [1] : (tensor<?x2xi32>, tensor<i32>) -> tensor<?xi32>
  %6 = "mhlo.torch_index_select"(%arg5, %5) {batch_dims = 0 : i64, dim = 0 : i64} : (tensor<?x4xf32>, tensor<?xi32>) -> tensor<?x4xf32>
  return %2, %4, %6 : tensor<?x4xf32>, tensor<?x4xf32>, tensor<?x4xf32>
}

// -----// IR Dump After BroadcastPropagationPass (mhlo-broadcast-propagation) //----- //
func.func @cuda_kernel_0(%arg0: tensor<?x2xi32> {input.fake_symbolic_shape = #tf_type.shape<137x2>, input.from = "7:0", input.has_one_use = true}, %arg1: tensor<?x4xf32> {input.fake_symbolic_shape = #tf_type.shape<137x4>, input.from = "4:0", input.has_one_use = true}, %arg2: tensor<?x2xi32> {input.fake_symbolic_shape = #tf_type.shape<137x2>, input.from = "8:0", input.has_one_use = true}, %arg3: tensor<?x4xf32> {input.fake_symbolic_shape = #tf_type.shape<137x4>, input.from = "5:0", input.has_one_use = true}, %arg4: tensor<?x2xi32> {input.fake_symbolic_shape = #tf_type.shape<137x2>, input.from = "9:0", input.has_one_use = true}, %arg5: tensor<?x4xf32> {input.fake_symbolic_shape = #tf_type.shape<137x4>, input.from = "6:0", input.has_one_use = true}) -> (tensor<?x4xf32>, tensor<?x4xf32>, tensor<?x4xf32>) attributes {BatchComputeFusion, _nano_compiler_group_idx = 0 : i64, _nano_compiler_op_idx = "10", _nano_compiler_v2, batch_compute_pattern = "FuseGatherV2OpPattern", llvm.emit_c_interface, tf_entry} {
  %0 = mhlo.constant dense<0> : tensor<i32>
  %1 = mhlo.reduce(%arg0 init: %0) applies mhlo.add across dimensions = [1] : (tensor<?x2xi32>, tensor<i32>) -> tensor<?xi32>
  %2 = "mhlo.torch_index_select"(%arg1, %1) {batch_dims = 0 : i64, dim = 0 : i64} : (tensor<?x4xf32>, tensor<?xi32>) -> tensor<?x4xf32>
  %3 = mhlo.reduce(%arg2 init: %0) applies mhlo.add across dimensions = [1] : (tensor<?x2xi32>, tensor<i32>) -> tensor<?xi32>
  %4 = "mhlo.torch_index_select"(%arg3, %3) {batch_dims = 0 : i64, dim = 0 : i64} : (tensor<?x4xf32>, tensor<?xi32>) -> tensor<?x4xf32>
  %5 = mhlo.reduce(%arg4 init: %0) applies mhlo.add across dimensions = [1] : (tensor<?x2xi32>, tensor<i32>) -> tensor<?xi32>
  %6 = "mhlo.torch_index_select"(%arg5, %5) {batch_dims = 0 : i64, dim = 0 : i64} : (tensor<?x4xf32>, tensor<?xi32>) -> tensor<?x4xf32>
  return %2, %4, %6 : tensor<?x4xf32>, tensor<?x4xf32>, tensor<?x4xf32>
}

// -----// IR Dump Before Canonicalizer (canonicalize) //----- //
func.func @cuda_kernel_0(%arg0: tensor<?x2xi32> {input.fake_symbolic_shape = #tf_type.shape<137x2>, input.from = "7:0", input.has_one_use = true}, %arg1: tensor<?x4xf32> {input.fake_symbolic_shape = #tf_type.shape<137x4>, input.from = "4:0", input.has_one_use = true}, %arg2: tensor<?x2xi32> {input.fake_symbolic_shape = #tf_type.shape<137x2>, input.from = "8:0", input.has_one_use = true}, %arg3: tensor<?x4xf32> {input.fake_symbolic_shape = #tf_type.shape<137x4>, input.from = "5:0", input.has_one_use = true}, %arg4: tensor<?x2xi32> {input.fake_symbolic_shape = #tf_type.shape<137x2>, input.from = "9:0", input.has_one_use = true}, %arg5: tensor<?x4xf32> {input.fake_symbolic_shape = #tf_type.shape<137x4>, input.from = "6:0", input.has_one_use = true}) -> (tensor<?x4xf32>, tensor<?x4xf32>, tensor<?x4xf32>) attributes {BatchComputeFusion, _nano_compiler_group_idx = 0 : i64, _nano_compiler_op_idx = "10", _nano_compiler_v2, batch_compute_pattern = "FuseGatherV2OpPattern", llvm.emit_c_interface, tf_entry} {
  %0 = mhlo.constant dense<0> : tensor<i32>
  %1 = mhlo.reduce(%arg0 init: %0) applies mhlo.add across dimensions = [1] : (tensor<?x2xi32>, tensor<i32>) -> tensor<?xi32>
  %2 = "mhlo.torch_index_select"(%arg1, %1) {batch_dims = 0 : i64, dim = 0 : i64} : (tensor<?x4xf32>, tensor<?xi32>) -> tensor<?x4xf32>
  %3 = mhlo.reduce(%arg2 init: %0) applies mhlo.add across dimensions = [1] : (tensor<?x2xi32>, tensor<i32>) -> tensor<?xi32>
  %4 = "mhlo.torch_index_select"(%arg3, %3) {batch_dims = 0 : i64, dim = 0 : i64} : (tensor<?x4xf32>, tensor<?xi32>) -> tensor<?x4xf32>
  %5 = mhlo.reduce(%arg4 init: %0) applies mhlo.add across dimensions = [1] : (tensor<?x2xi32>, tensor<i32>) -> tensor<?xi32>
  %6 = "mhlo.torch_index_select"(%arg5, %5) {batch_dims = 0 : i64, dim = 0 : i64} : (tensor<?x4xf32>, tensor<?xi32>) -> tensor<?x4xf32>
  return %2, %4, %6 : tensor<?x4xf32>, tensor<?x4xf32>, tensor<?x4xf32>
}

// -----// IR Dump After Canonicalizer (canonicalize) //----- //
func.func @cuda_kernel_0(%arg0: tensor<?x2xi32> {input.fake_symbolic_shape = #tf_type.shape<137x2>, input.from = "7:0", input.has_one_use = true}, %arg1: tensor<?x4xf32> {input.fake_symbolic_shape = #tf_type.shape<137x4>, input.from = "4:0", input.has_one_use = true}, %arg2: tensor<?x2xi32> {input.fake_symbolic_shape = #tf_type.shape<137x2>, input.from = "8:0", input.has_one_use = true}, %arg3: tensor<?x4xf32> {input.fake_symbolic_shape = #tf_type.shape<137x4>, input.from = "5:0", input.has_one_use = true}, %arg4: tensor<?x2xi32> {input.fake_symbolic_shape = #tf_type.shape<137x2>, input.from = "9:0", input.has_one_use = true}, %arg5: tensor<?x4xf32> {input.fake_symbolic_shape = #tf_type.shape<137x4>, input.from = "6:0", input.has_one_use = true}) -> (tensor<?x4xf32>, tensor<?x4xf32>, tensor<?x4xf32>) attributes {BatchComputeFusion, _nano_compiler_group_idx = 0 : i64, _nano_compiler_op_idx = "10", _nano_compiler_v2, batch_compute_pattern = "FuseGatherV2OpPattern", llvm.emit_c_interface, tf_entry} {
  %0 = mhlo.constant dense<0> : tensor<i32>
  %1 = mhlo.reduce(%arg0 init: %0) applies mhlo.add across dimensions = [1] : (tensor<?x2xi32>, tensor<i32>) -> tensor<?xi32>
  %2 = "mhlo.torch_index_select"(%arg1, %1) {batch_dims = 0 : i64, dim = 0 : i64} : (tensor<?x4xf32>, tensor<?xi32>) -> tensor<?x4xf32>
  %3 = mhlo.reduce(%arg2 init: %0) applies mhlo.add across dimensions = [1] : (tensor<?x2xi32>, tensor<i32>) -> tensor<?xi32>
  %4 = "mhlo.torch_index_select"(%arg3, %3) {batch_dims = 0 : i64, dim = 0 : i64} : (tensor<?x4xf32>, tensor<?xi32>) -> tensor<?x4xf32>
  %5 = mhlo.reduce(%arg4 init: %0) applies mhlo.add across dimensions = [1] : (tensor<?x2xi32>, tensor<i32>) -> tensor<?xi32>
  %6 = "mhlo.torch_index_select"(%arg5, %5) {batch_dims = 0 : i64, dim = 0 : i64} : (tensor<?x4xf32>, tensor<?xi32>) -> tensor<?x4xf32>
  return %2, %4, %6 : tensor<?x4xf32>, tensor<?x4xf32>, tensor<?x4xf32>
}

// -----// IR Dump Before CSE (cse) //----- //
func.func @cuda_kernel_0(%arg0: tensor<?x2xi32> {input.fake_symbolic_shape = #tf_type.shape<137x2>, input.from = "7:0", input.has_one_use = true}, %arg1: tensor<?x4xf32> {input.fake_symbolic_shape = #tf_type.shape<137x4>, input.from = "4:0", input.has_one_use = true}, %arg2: tensor<?x2xi32> {input.fake_symbolic_shape = #tf_type.shape<137x2>, input.from = "8:0", input.has_one_use = true}, %arg3: tensor<?x4xf32> {input.fake_symbolic_shape = #tf_type.shape<137x4>, input.from = "5:0", input.has_one_use = true}, %arg4: tensor<?x2xi32> {input.fake_symbolic_shape = #tf_type.shape<137x2>, input.from = "9:0", input.has_one_use = true}, %arg5: tensor<?x4xf32> {input.fake_symbolic_shape = #tf_type.shape<137x4>, input.from = "6:0", input.has_one_use = true}) -> (tensor<?x4xf32>, tensor<?x4xf32>, tensor<?x4xf32>) attributes {BatchComputeFusion, _nano_compiler_group_idx = 0 : i64, _nano_compiler_op_idx = "10", _nano_compiler_v2, batch_compute_pattern = "FuseGatherV2OpPattern", llvm.emit_c_interface, tf_entry} {
  %0 = mhlo.constant dense<0> : tensor<i32>
  %1 = mhlo.reduce(%arg0 init: %0) applies mhlo.add across dimensions = [1] : (tensor<?x2xi32>, tensor<i32>) -> tensor<?xi32>
  %2 = "mhlo.torch_index_select"(%arg1, %1) {batch_dims = 0 : i64, dim = 0 : i64} : (tensor<?x4xf32>, tensor<?xi32>) -> tensor<?x4xf32>
  %3 = mhlo.reduce(%arg2 init: %0) applies mhlo.add across dimensions = [1] : (tensor<?x2xi32>, tensor<i32>) -> tensor<?xi32>
  %4 = "mhlo.torch_index_select"(%arg3, %3) {batch_dims = 0 : i64, dim = 0 : i64} : (tensor<?x4xf32>, tensor<?xi32>) -> tensor<?x4xf32>
  %5 = mhlo.reduce(%arg4 init: %0) applies mhlo.add across dimensions = [1] : (tensor<?x2xi32>, tensor<i32>) -> tensor<?xi32>
  %6 = "mhlo.torch_index_select"(%arg5, %5) {batch_dims = 0 : i64, dim = 0 : i64} : (tensor<?x4xf32>, tensor<?xi32>) -> tensor<?x4xf32>
  return %2, %4, %6 : tensor<?x4xf32>, tensor<?x4xf32>, tensor<?x4xf32>
}

// -----// IR Dump After CSE (cse) //----- //
func.func @cuda_kernel_0(%arg0: tensor<?x2xi32> {input.fake_symbolic_shape = #tf_type.shape<137x2>, input.from = "7:0", input.has_one_use = true}, %arg1: tensor<?x4xf32> {input.fake_symbolic_shape = #tf_type.shape<137x4>, input.from = "4:0", input.has_one_use = true}, %arg2: tensor<?x2xi32> {input.fake_symbolic_shape = #tf_type.shape<137x2>, input.from = "8:0", input.has_one_use = true}, %arg3: tensor<?x4xf32> {input.fake_symbolic_shape = #tf_type.shape<137x4>, input.from = "5:0", input.has_one_use = true}, %arg4: tensor<?x2xi32> {input.fake_symbolic_shape = #tf_type.shape<137x2>, input.from = "9:0", input.has_one_use = true}, %arg5: tensor<?x4xf32> {input.fake_symbolic_shape = #tf_type.shape<137x4>, input.from = "6:0", input.has_one_use = true}) -> (tensor<?x4xf32>, tensor<?x4xf32>, tensor<?x4xf32>) attributes {BatchComputeFusion, _nano_compiler_group_idx = 0 : i64, _nano_compiler_op_idx = "10", _nano_compiler_v2, batch_compute_pattern = "FuseGatherV2OpPattern", llvm.emit_c_interface, tf_entry} {
  %0 = mhlo.constant dense<0> : tensor<i32>
  %1 = mhlo.reduce(%arg0 init: %0) applies mhlo.add across dimensions = [1] : (tensor<?x2xi32>, tensor<i32>) -> tensor<?xi32>
  %2 = "mhlo.torch_index_select"(%arg1, %1) {batch_dims = 0 : i64, dim = 0 : i64} : (tensor<?x4xf32>, tensor<?xi32>) -> tensor<?x4xf32>
  %3 = mhlo.reduce(%arg2 init: %0) applies mhlo.add across dimensions = [1] : (tensor<?x2xi32>, tensor<i32>) -> tensor<?xi32>
  %4 = "mhlo.torch_index_select"(%arg3, %3) {batch_dims = 0 : i64, dim = 0 : i64} : (tensor<?x4xf32>, tensor<?xi32>) -> tensor<?x4xf32>
  %5 = mhlo.reduce(%arg4 init: %0) applies mhlo.add across dimensions = [1] : (tensor<?x2xi32>, tensor<i32>) -> tensor<?xi32>
  %6 = "mhlo.torch_index_select"(%arg5, %5) {batch_dims = 0 : i64, dim = 0 : i64} : (tensor<?x4xf32>, tensor<?xi32>) -> tensor<?x4xf32>
  return %2, %4, %6 : tensor<?x4xf32>, tensor<?x4xf32>, tensor<?x4xf32>
}

// -----// IR Dump Before AddFakeSymbolicShape (add-fake-symbolic-shape) //----- //
func.func @cuda_kernel_0(%arg0: tensor<?x2xi32> {input.fake_symbolic_shape = #tf_type.shape<137x2>, input.from = "7:0", input.has_one_use = true}, %arg1: tensor<?x4xf32> {input.fake_symbolic_shape = #tf_type.shape<137x4>, input.from = "4:0", input.has_one_use = true}, %arg2: tensor<?x2xi32> {input.fake_symbolic_shape = #tf_type.shape<137x2>, input.from = "8:0", input.has_one_use = true}, %arg3: tensor<?x4xf32> {input.fake_symbolic_shape = #tf_type.shape<137x4>, input.from = "5:0", input.has_one_use = true}, %arg4: tensor<?x2xi32> {input.fake_symbolic_shape = #tf_type.shape<137x2>, input.from = "9:0", input.has_one_use = true}, %arg5: tensor<?x4xf32> {input.fake_symbolic_shape = #tf_type.shape<137x4>, input.from = "6:0", input.has_one_use = true}) -> (tensor<?x4xf32>, tensor<?x4xf32>, tensor<?x4xf32>) attributes {BatchComputeFusion, _nano_compiler_group_idx = 0 : i64, _nano_compiler_op_idx = "10", _nano_compiler_v2, batch_compute_pattern = "FuseGatherV2OpPattern", llvm.emit_c_interface, tf_entry} {
  %0 = mhlo.constant dense<0> : tensor<i32>
  %1 = mhlo.reduce(%arg0 init: %0) applies mhlo.add across dimensions = [1] : (tensor<?x2xi32>, tensor<i32>) -> tensor<?xi32>
  %2 = "mhlo.torch_index_select"(%arg1, %1) {batch_dims = 0 : i64, dim = 0 : i64} : (tensor<?x4xf32>, tensor<?xi32>) -> tensor<?x4xf32>
  %3 = mhlo.reduce(%arg2 init: %0) applies mhlo.add across dimensions = [1] : (tensor<?x2xi32>, tensor<i32>) -> tensor<?xi32>
  %4 = "mhlo.torch_index_select"(%arg3, %3) {batch_dims = 0 : i64, dim = 0 : i64} : (tensor<?x4xf32>, tensor<?xi32>) -> tensor<?x4xf32>
  %5 = mhlo.reduce(%arg4 init: %0) applies mhlo.add across dimensions = [1] : (tensor<?x2xi32>, tensor<i32>) -> tensor<?xi32>
  %6 = "mhlo.torch_index_select"(%arg5, %5) {batch_dims = 0 : i64, dim = 0 : i64} : (tensor<?x4xf32>, tensor<?xi32>) -> tensor<?x4xf32>
  return %2, %4, %6 : tensor<?x4xf32>, tensor<?x4xf32>, tensor<?x4xf32>
}

// -----// IR Dump After AddFakeSymbolicShape (add-fake-symbolic-shape) //----- //
func.func @cuda_kernel_0(%arg0: tensor<?x2xi32> {input.fake_symbolic_shape = #tf_type.shape<137x2>, input.from = "7:0", input.has_one_use = true}, %arg1: tensor<?x4xf32> {input.fake_symbolic_shape = #tf_type.shape<137x4>, input.from = "4:0", input.has_one_use = true}, %arg2: tensor<?x2xi32> {input.fake_symbolic_shape = #tf_type.shape<137x2>, input.from = "8:0", input.has_one_use = true}, %arg3: tensor<?x4xf32> {input.fake_symbolic_shape = #tf_type.shape<137x4>, input.from = "5:0", input.has_one_use = true}, %arg4: tensor<?x2xi32> {input.fake_symbolic_shape = #tf_type.shape<137x2>, input.from = "9:0", input.has_one_use = true}, %arg5: tensor<?x4xf32> {input.fake_symbolic_shape = #tf_type.shape<137x4>, input.from = "6:0", input.has_one_use = true}) -> (tensor<?x4xf32>, tensor<?x4xf32>, tensor<?x4xf32>) attributes {BatchComputeFusion, _nano_compiler_group_idx = 0 : i64, _nano_compiler_op_idx = "10", _nano_compiler_v2, batch_compute_pattern = "FuseGatherV2OpPattern", llvm.emit_c_interface, tf_entry} {
  %0 = mhlo.constant dense<0> : tensor<i32>
  %1 = mhlo.reduce(%arg0 init: %0) applies mhlo.add across dimensions = [1] : (tensor<?x2xi32>, tensor<i32>) -> tensor<?xi32>
  %2 = "mhlo.torch_index_select"(%arg1, %1) {batch_dims = 0 : i64, dim = 0 : i64} : (tensor<?x4xf32>, tensor<?xi32>) -> tensor<?x4xf32>
  %3 = mhlo.reduce(%arg2 init: %0) applies mhlo.add across dimensions = [1] : (tensor<?x2xi32>, tensor<i32>) -> tensor<?xi32>
  %4 = "mhlo.torch_index_select"(%arg3, %3) {batch_dims = 0 : i64, dim = 0 : i64} : (tensor<?x4xf32>, tensor<?xi32>) -> tensor<?x4xf32>
  %5 = mhlo.reduce(%arg4 init: %0) applies mhlo.add across dimensions = [1] : (tensor<?x2xi32>, tensor<i32>) -> tensor<?xi32>
  %6 = "mhlo.torch_index_select"(%arg5, %5) {batch_dims = 0 : i64, dim = 0 : i64} : (tensor<?x4xf32>, tensor<?xi32>) -> tensor<?x4xf32>
  return %2, %4, %6 : tensor<?x4xf32>, tensor<?x4xf32>, tensor<?x4xf32>
}

// -----// IR Dump Before CanonicalizeExtWithConstraints (canonicalize-ext-with-constraints) //----- //
func.func @cuda_kernel_0(%arg0: tensor<?x2xi32> {input.fake_symbolic_shape = #tf_type.shape<137x2>, input.from = "7:0", input.has_one_use = true}, %arg1: tensor<?x4xf32> {input.fake_symbolic_shape = #tf_type.shape<137x4>, input.from = "4:0", input.has_one_use = true}, %arg2: tensor<?x2xi32> {input.fake_symbolic_shape = #tf_type.shape<137x2>, input.from = "8:0", input.has_one_use = true}, %arg3: tensor<?x4xf32> {input.fake_symbolic_shape = #tf_type.shape<137x4>, input.from = "5:0", input.has_one_use = true}, %arg4: tensor<?x2xi32> {input.fake_symbolic_shape = #tf_type.shape<137x2>, input.from = "9:0", input.has_one_use = true}, %arg5: tensor<?x4xf32> {input.fake_symbolic_shape = #tf_type.shape<137x4>, input.from = "6:0", input.has_one_use = true}) -> (tensor<?x4xf32>, tensor<?x4xf32>, tensor<?x4xf32>) attributes {BatchComputeFusion, _nano_compiler_group_idx = 0 : i64, _nano_compiler_op_idx = "10", _nano_compiler_v2, batch_compute_pattern = "FuseGatherV2OpPattern", llvm.emit_c_interface, tf_entry} {
  %0 = mhlo.constant dense<0> : tensor<i32>
  %1 = mhlo.reduce(%arg0 init: %0) applies mhlo.add across dimensions = [1] : (tensor<?x2xi32>, tensor<i32>) -> tensor<?xi32>
  %2 = "mhlo.torch_index_select"(%arg1, %1) {batch_dims = 0 : i64, dim = 0 : i64} : (tensor<?x4xf32>, tensor<?xi32>) -> tensor<?x4xf32>
  %3 = mhlo.reduce(%arg2 init: %0) applies mhlo.add across dimensions = [1] : (tensor<?x2xi32>, tensor<i32>) -> tensor<?xi32>
  %4 = "mhlo.torch_index_select"(%arg3, %3) {batch_dims = 0 : i64, dim = 0 : i64} : (tensor<?x4xf32>, tensor<?xi32>) -> tensor<?x4xf32>
  %5 = mhlo.reduce(%arg4 init: %0) applies mhlo.add across dimensions = [1] : (tensor<?x2xi32>, tensor<i32>) -> tensor<?xi32>
  %6 = "mhlo.torch_index_select"(%arg5, %5) {batch_dims = 0 : i64, dim = 0 : i64} : (tensor<?x4xf32>, tensor<?xi32>) -> tensor<?x4xf32>
  return %2, %4, %6 : tensor<?x4xf32>, tensor<?x4xf32>, tensor<?x4xf32>
}

// -----// IR Dump After CanonicalizeExtWithConstraints (canonicalize-ext-with-constraints) //----- //
func.func @cuda_kernel_0(%arg0: tensor<?x2xi32> {input.fake_symbolic_shape = #tf_type.shape<137x2>, input.from = "7:0", input.has_one_use = true}, %arg1: tensor<?x4xf32> {input.fake_symbolic_shape = #tf_type.shape<137x4>, input.from = "4:0", input.has_one_use = true}, %arg2: tensor<?x2xi32> {input.fake_symbolic_shape = #tf_type.shape<137x2>, input.from = "8:0", input.has_one_use = true}, %arg3: tensor<?x4xf32> {input.fake_symbolic_shape = #tf_type.shape<137x4>, input.from = "5:0", input.has_one_use = true}, %arg4: tensor<?x2xi32> {input.fake_symbolic_shape = #tf_type.shape<137x2>, input.from = "9:0", input.has_one_use = true}, %arg5: tensor<?x4xf32> {input.fake_symbolic_shape = #tf_type.shape<137x4>, input.from = "6:0", input.has_one_use = true}) -> (tensor<?x4xf32>, tensor<?x4xf32>, tensor<?x4xf32>) attributes {BatchComputeFusion, _nano_compiler_group_idx = 0 : i64, _nano_compiler_op_idx = "10", _nano_compiler_v2, batch_compute_pattern = "FuseGatherV2OpPattern", llvm.emit_c_interface, tf_entry} {
  %0 = mhlo.constant dense<0> : tensor<i32>
  %1 = mhlo.reduce(%arg0 init: %0) applies mhlo.add across dimensions = [1] : (tensor<?x2xi32>, tensor<i32>) -> tensor<?xi32>
  %2 = "mhlo.torch_index_select"(%arg1, %1) {batch_dims = 0 : i64, dim = 0 : i64} : (tensor<?x4xf32>, tensor<?xi32>) -> tensor<?x4xf32>
  %3 = mhlo.reduce(%arg2 init: %0) applies mhlo.add across dimensions = [1] : (tensor<?x2xi32>, tensor<i32>) -> tensor<?xi32>
  %4 = "mhlo.torch_index_select"(%arg3, %3) {batch_dims = 0 : i64, dim = 0 : i64} : (tensor<?x4xf32>, tensor<?xi32>) -> tensor<?x4xf32>
  %5 = mhlo.reduce(%arg4 init: %0) applies mhlo.add across dimensions = [1] : (tensor<?x2xi32>, tensor<i32>) -> tensor<?xi32>
  %6 = "mhlo.torch_index_select"(%arg5, %5) {batch_dims = 0 : i64, dim = 0 : i64} : (tensor<?x4xf32>, tensor<?xi32>) -> tensor<?x4xf32>
  return %2, %4, %6 : tensor<?x4xf32>, tensor<?x4xf32>, tensor<?x4xf32>
}

// -----// IR Dump Before Canonicalizer (canonicalize) //----- //
func.func @cuda_kernel_0(%arg0: tensor<?x2xi32> {input.fake_symbolic_shape = #tf_type.shape<137x2>, input.from = "7:0", input.has_one_use = true}, %arg1: tensor<?x4xf32> {input.fake_symbolic_shape = #tf_type.shape<137x4>, input.from = "4:0", input.has_one_use = true}, %arg2: tensor<?x2xi32> {input.fake_symbolic_shape = #tf_type.shape<137x2>, input.from = "8:0", input.has_one_use = true}, %arg3: tensor<?x4xf32> {input.fake_symbolic_shape = #tf_type.shape<137x4>, input.from = "5:0", input.has_one_use = true}, %arg4: tensor<?x2xi32> {input.fake_symbolic_shape = #tf_type.shape<137x2>, input.from = "9:0", input.has_one_use = true}, %arg5: tensor<?x4xf32> {input.fake_symbolic_shape = #tf_type.shape<137x4>, input.from = "6:0", input.has_one_use = true}) -> (tensor<?x4xf32>, tensor<?x4xf32>, tensor<?x4xf32>) attributes {BatchComputeFusion, _nano_compiler_group_idx = 0 : i64, _nano_compiler_op_idx = "10", _nano_compiler_v2, batch_compute_pattern = "FuseGatherV2OpPattern", llvm.emit_c_interface, tf_entry} {
  %0 = mhlo.constant dense<0> : tensor<i32>
  %1 = mhlo.reduce(%arg0 init: %0) applies mhlo.add across dimensions = [1] : (tensor<?x2xi32>, tensor<i32>) -> tensor<?xi32>
  %2 = "mhlo.torch_index_select"(%arg1, %1) {batch_dims = 0 : i64, dim = 0 : i64} : (tensor<?x4xf32>, tensor<?xi32>) -> tensor<?x4xf32>
  %3 = mhlo.reduce(%arg2 init: %0) applies mhlo.add across dimensions = [1] : (tensor<?x2xi32>, tensor<i32>) -> tensor<?xi32>
  %4 = "mhlo.torch_index_select"(%arg3, %3) {batch_dims = 0 : i64, dim = 0 : i64} : (tensor<?x4xf32>, tensor<?xi32>) -> tensor<?x4xf32>
  %5 = mhlo.reduce(%arg4 init: %0) applies mhlo.add across dimensions = [1] : (tensor<?x2xi32>, tensor<i32>) -> tensor<?xi32>
  %6 = "mhlo.torch_index_select"(%arg5, %5) {batch_dims = 0 : i64, dim = 0 : i64} : (tensor<?x4xf32>, tensor<?xi32>) -> tensor<?x4xf32>
  return %2, %4, %6 : tensor<?x4xf32>, tensor<?x4xf32>, tensor<?x4xf32>
}

// -----// IR Dump After Canonicalizer (canonicalize) //----- //
func.func @cuda_kernel_0(%arg0: tensor<?x2xi32> {input.fake_symbolic_shape = #tf_type.shape<137x2>, input.from = "7:0", input.has_one_use = true}, %arg1: tensor<?x4xf32> {input.fake_symbolic_shape = #tf_type.shape<137x4>, input.from = "4:0", input.has_one_use = true}, %arg2: tensor<?x2xi32> {input.fake_symbolic_shape = #tf_type.shape<137x2>, input.from = "8:0", input.has_one_use = true}, %arg3: tensor<?x4xf32> {input.fake_symbolic_shape = #tf_type.shape<137x4>, input.from = "5:0", input.has_one_use = true}, %arg4: tensor<?x2xi32> {input.fake_symbolic_shape = #tf_type.shape<137x2>, input.from = "9:0", input.has_one_use = true}, %arg5: tensor<?x4xf32> {input.fake_symbolic_shape = #tf_type.shape<137x4>, input.from = "6:0", input.has_one_use = true}) -> (tensor<?x4xf32>, tensor<?x4xf32>, tensor<?x4xf32>) attributes {BatchComputeFusion, _nano_compiler_group_idx = 0 : i64, _nano_compiler_op_idx = "10", _nano_compiler_v2, batch_compute_pattern = "FuseGatherV2OpPattern", llvm.emit_c_interface, tf_entry} {
  %0 = mhlo.constant dense<0> : tensor<i32>
  %1 = mhlo.reduce(%arg0 init: %0) applies mhlo.add across dimensions = [1] : (tensor<?x2xi32>, tensor<i32>) -> tensor<?xi32>
  %2 = "mhlo.torch_index_select"(%arg1, %1) {batch_dims = 0 : i64, dim = 0 : i64} : (tensor<?x4xf32>, tensor<?xi32>) -> tensor<?x4xf32>
  %3 = mhlo.reduce(%arg2 init: %0) applies mhlo.add across dimensions = [1] : (tensor<?x2xi32>, tensor<i32>) -> tensor<?xi32>
  %4 = "mhlo.torch_index_select"(%arg3, %3) {batch_dims = 0 : i64, dim = 0 : i64} : (tensor<?x4xf32>, tensor<?xi32>) -> tensor<?x4xf32>
  %5 = mhlo.reduce(%arg4 init: %0) applies mhlo.add across dimensions = [1] : (tensor<?x2xi32>, tensor<i32>) -> tensor<?xi32>
  %6 = "mhlo.torch_index_select"(%arg5, %5) {batch_dims = 0 : i64, dim = 0 : i64} : (tensor<?x4xf32>, tensor<?xi32>) -> tensor<?x4xf32>
  return %2, %4, %6 : tensor<?x4xf32>, tensor<?x4xf32>, tensor<?x4xf32>
}

// -----// IR Dump Before CSE (cse) //----- //
func.func @cuda_kernel_0(%arg0: tensor<?x2xi32> {input.fake_symbolic_shape = #tf_type.shape<137x2>, input.from = "7:0", input.has_one_use = true}, %arg1: tensor<?x4xf32> {input.fake_symbolic_shape = #tf_type.shape<137x4>, input.from = "4:0", input.has_one_use = true}, %arg2: tensor<?x2xi32> {input.fake_symbolic_shape = #tf_type.shape<137x2>, input.from = "8:0", input.has_one_use = true}, %arg3: tensor<?x4xf32> {input.fake_symbolic_shape = #tf_type.shape<137x4>, input.from = "5:0", input.has_one_use = true}, %arg4: tensor<?x2xi32> {input.fake_symbolic_shape = #tf_type.shape<137x2>, input.from = "9:0", input.has_one_use = true}, %arg5: tensor<?x4xf32> {input.fake_symbolic_shape = #tf_type.shape<137x4>, input.from = "6:0", input.has_one_use = true}) -> (tensor<?x4xf32>, tensor<?x4xf32>, tensor<?x4xf32>) attributes {BatchComputeFusion, _nano_compiler_group_idx = 0 : i64, _nano_compiler_op_idx = "10", _nano_compiler_v2, batch_compute_pattern = "FuseGatherV2OpPattern", llvm.emit_c_interface, tf_entry} {
  %0 = mhlo.constant dense<0> : tensor<i32>
  %1 = mhlo.reduce(%arg0 init: %0) applies mhlo.add across dimensions = [1] : (tensor<?x2xi32>, tensor<i32>) -> tensor<?xi32>
  %2 = "mhlo.torch_index_select"(%arg1, %1) {batch_dims = 0 : i64, dim = 0 : i64} : (tensor<?x4xf32>, tensor<?xi32>) -> tensor<?x4xf32>
  %3 = mhlo.reduce(%arg2 init: %0) applies mhlo.add across dimensions = [1] : (tensor<?x2xi32>, tensor<i32>) -> tensor<?xi32>
  %4 = "mhlo.torch_index_select"(%arg3, %3) {batch_dims = 0 : i64, dim = 0 : i64} : (tensor<?x4xf32>, tensor<?xi32>) -> tensor<?x4xf32>
  %5 = mhlo.reduce(%arg4 init: %0) applies mhlo.add across dimensions = [1] : (tensor<?x2xi32>, tensor<i32>) -> tensor<?xi32>
  %6 = "mhlo.torch_index_select"(%arg5, %5) {batch_dims = 0 : i64, dim = 0 : i64} : (tensor<?x4xf32>, tensor<?xi32>) -> tensor<?x4xf32>
  return %2, %4, %6 : tensor<?x4xf32>, tensor<?x4xf32>, tensor<?x4xf32>
}

// -----// IR Dump After CSE (cse) //----- //
func.func @cuda_kernel_0(%arg0: tensor<?x2xi32> {input.fake_symbolic_shape = #tf_type.shape<137x2>, input.from = "7:0", input.has_one_use = true}, %arg1: tensor<?x4xf32> {input.fake_symbolic_shape = #tf_type.shape<137x4>, input.from = "4:0", input.has_one_use = true}, %arg2: tensor<?x2xi32> {input.fake_symbolic_shape = #tf_type.shape<137x2>, input.from = "8:0", input.has_one_use = true}, %arg3: tensor<?x4xf32> {input.fake_symbolic_shape = #tf_type.shape<137x4>, input.from = "5:0", input.has_one_use = true}, %arg4: tensor<?x2xi32> {input.fake_symbolic_shape = #tf_type.shape<137x2>, input.from = "9:0", input.has_one_use = true}, %arg5: tensor<?x4xf32> {input.fake_symbolic_shape = #tf_type.shape<137x4>, input.from = "6:0", input.has_one_use = true}) -> (tensor<?x4xf32>, tensor<?x4xf32>, tensor<?x4xf32>) attributes {BatchComputeFusion, _nano_compiler_group_idx = 0 : i64, _nano_compiler_op_idx = "10", _nano_compiler_v2, batch_compute_pattern = "FuseGatherV2OpPattern", llvm.emit_c_interface, tf_entry} {
  %0 = mhlo.constant dense<0> : tensor<i32>
  %1 = mhlo.reduce(%arg0 init: %0) applies mhlo.add across dimensions = [1] : (tensor<?x2xi32>, tensor<i32>) -> tensor<?xi32>
  %2 = "mhlo.torch_index_select"(%arg1, %1) {batch_dims = 0 : i64, dim = 0 : i64} : (tensor<?x4xf32>, tensor<?xi32>) -> tensor<?x4xf32>
  %3 = mhlo.reduce(%arg2 init: %0) applies mhlo.add across dimensions = [1] : (tensor<?x2xi32>, tensor<i32>) -> tensor<?xi32>
  %4 = "mhlo.torch_index_select"(%arg3, %3) {batch_dims = 0 : i64, dim = 0 : i64} : (tensor<?x4xf32>, tensor<?xi32>) -> tensor<?x4xf32>
  %5 = mhlo.reduce(%arg4 init: %0) applies mhlo.add across dimensions = [1] : (tensor<?x2xi32>, tensor<i32>) -> tensor<?xi32>
  %6 = "mhlo.torch_index_select"(%arg5, %5) {batch_dims = 0 : i64, dim = 0 : i64} : (tensor<?x4xf32>, tensor<?xi32>) -> tensor<?x4xf32>
  return %2, %4, %6 : tensor<?x4xf32>, tensor<?x4xf32>, tensor<?x4xf32>
}

// -----// IR Dump Before DelFakeSymbolicShape (del-fake-symbolic-shape) //----- //
func.func @cuda_kernel_0(%arg0: tensor<?x2xi32> {input.fake_symbolic_shape = #tf_type.shape<137x2>, input.from = "7:0", input.has_one_use = true}, %arg1: tensor<?x4xf32> {input.fake_symbolic_shape = #tf_type.shape<137x4>, input.from = "4:0", input.has_one_use = true}, %arg2: tensor<?x2xi32> {input.fake_symbolic_shape = #tf_type.shape<137x2>, input.from = "8:0", input.has_one_use = true}, %arg3: tensor<?x4xf32> {input.fake_symbolic_shape = #tf_type.shape<137x4>, input.from = "5:0", input.has_one_use = true}, %arg4: tensor<?x2xi32> {input.fake_symbolic_shape = #tf_type.shape<137x2>, input.from = "9:0", input.has_one_use = true}, %arg5: tensor<?x4xf32> {input.fake_symbolic_shape = #tf_type.shape<137x4>, input.from = "6:0", input.has_one_use = true}) -> (tensor<?x4xf32>, tensor<?x4xf32>, tensor<?x4xf32>) attributes {BatchComputeFusion, _nano_compiler_group_idx = 0 : i64, _nano_compiler_op_idx = "10", _nano_compiler_v2, batch_compute_pattern = "FuseGatherV2OpPattern", llvm.emit_c_interface, tf_entry} {
  %0 = mhlo.constant dense<0> : tensor<i32>
  %1 = mhlo.reduce(%arg0 init: %0) applies mhlo.add across dimensions = [1] : (tensor<?x2xi32>, tensor<i32>) -> tensor<?xi32>
  %2 = "mhlo.torch_index_select"(%arg1, %1) {batch_dims = 0 : i64, dim = 0 : i64} : (tensor<?x4xf32>, tensor<?xi32>) -> tensor<?x4xf32>
  %3 = mhlo.reduce(%arg2 init: %0) applies mhlo.add across dimensions = [1] : (tensor<?x2xi32>, tensor<i32>) -> tensor<?xi32>
  %4 = "mhlo.torch_index_select"(%arg3, %3) {batch_dims = 0 : i64, dim = 0 : i64} : (tensor<?x4xf32>, tensor<?xi32>) -> tensor<?x4xf32>
  %5 = mhlo.reduce(%arg4 init: %0) applies mhlo.add across dimensions = [1] : (tensor<?x2xi32>, tensor<i32>) -> tensor<?xi32>
  %6 = "mhlo.torch_index_select"(%arg5, %5) {batch_dims = 0 : i64, dim = 0 : i64} : (tensor<?x4xf32>, tensor<?xi32>) -> tensor<?x4xf32>
  return %2, %4, %6 : tensor<?x4xf32>, tensor<?x4xf32>, tensor<?x4xf32>
}

// -----// IR Dump After DelFakeSymbolicShape (del-fake-symbolic-shape) //----- //
func.func @cuda_kernel_0(%arg0: tensor<?x2xi32> {input.fake_symbolic_shape = #tf_type.shape<137x2>, input.from = "7:0", input.has_one_use = true}, %arg1: tensor<?x4xf32> {input.fake_symbolic_shape = #tf_type.shape<137x4>, input.from = "4:0", input.has_one_use = true}, %arg2: tensor<?x2xi32> {input.fake_symbolic_shape = #tf_type.shape<137x2>, input.from = "8:0", input.has_one_use = true}, %arg3: tensor<?x4xf32> {input.fake_symbolic_shape = #tf_type.shape<137x4>, input.from = "5:0", input.has_one_use = true}, %arg4: tensor<?x2xi32> {input.fake_symbolic_shape = #tf_type.shape<137x2>, input.from = "9:0", input.has_one_use = true}, %arg5: tensor<?x4xf32> {input.fake_symbolic_shape = #tf_type.shape<137x4>, input.from = "6:0", input.has_one_use = true}) -> (tensor<?x4xf32>, tensor<?x4xf32>, tensor<?x4xf32>) attributes {BatchComputeFusion, _nano_compiler_group_idx = 0 : i64, _nano_compiler_op_idx = "10", _nano_compiler_v2, batch_compute_pattern = "FuseGatherV2OpPattern", llvm.emit_c_interface, tf_entry} {
  %0 = mhlo.constant dense<0> : tensor<i32>
  %1 = mhlo.reduce(%arg0 init: %0) applies mhlo.add across dimensions = [1] : (tensor<?x2xi32>, tensor<i32>) -> tensor<?xi32>
  %2 = "mhlo.torch_index_select"(%arg1, %1) {batch_dims = 0 : i64, dim = 0 : i64} : (tensor<?x4xf32>, tensor<?xi32>) -> tensor<?x4xf32>
  %3 = mhlo.reduce(%arg2 init: %0) applies mhlo.add across dimensions = [1] : (tensor<?x2xi32>, tensor<i32>) -> tensor<?xi32>
  %4 = "mhlo.torch_index_select"(%arg3, %3) {batch_dims = 0 : i64, dim = 0 : i64} : (tensor<?x4xf32>, tensor<?xi32>) -> tensor<?x4xf32>
  %5 = mhlo.reduce(%arg4 init: %0) applies mhlo.add across dimensions = [1] : (tensor<?x2xi32>, tensor<i32>) -> tensor<?xi32>
  %6 = "mhlo.torch_index_select"(%arg5, %5) {batch_dims = 0 : i64, dim = 0 : i64} : (tensor<?x4xf32>, tensor<?xi32>) -> tensor<?x4xf32>
  return %2, %4, %6 : tensor<?x4xf32>, tensor<?x4xf32>, tensor<?x4xf32>
}

// -----// IR Dump Before Canonicalizer (canonicalize) //----- //
func.func @cuda_kernel_0(%arg0: tensor<?x2xi32> {input.fake_symbolic_shape = #tf_type.shape<137x2>, input.from = "7:0", input.has_one_use = true}, %arg1: tensor<?x4xf32> {input.fake_symbolic_shape = #tf_type.shape<137x4>, input.from = "4:0", input.has_one_use = true}, %arg2: tensor<?x2xi32> {input.fake_symbolic_shape = #tf_type.shape<137x2>, input.from = "8:0", input.has_one_use = true}, %arg3: tensor<?x4xf32> {input.fake_symbolic_shape = #tf_type.shape<137x4>, input.from = "5:0", input.has_one_use = true}, %arg4: tensor<?x2xi32> {input.fake_symbolic_shape = #tf_type.shape<137x2>, input.from = "9:0", input.has_one_use = true}, %arg5: tensor<?x4xf32> {input.fake_symbolic_shape = #tf_type.shape<137x4>, input.from = "6:0", input.has_one_use = true}) -> (tensor<?x4xf32>, tensor<?x4xf32>, tensor<?x4xf32>) attributes {BatchComputeFusion, _nano_compiler_group_idx = 0 : i64, _nano_compiler_op_idx = "10", _nano_compiler_v2, batch_compute_pattern = "FuseGatherV2OpPattern", llvm.emit_c_interface, tf_entry} {
  %0 = mhlo.constant dense<0> : tensor<i32>
  %1 = mhlo.reduce(%arg0 init: %0) applies mhlo.add across dimensions = [1] : (tensor<?x2xi32>, tensor<i32>) -> tensor<?xi32>
  %2 = "mhlo.torch_index_select"(%arg1, %1) {batch_dims = 0 : i64, dim = 0 : i64} : (tensor<?x4xf32>, tensor<?xi32>) -> tensor<?x4xf32>
  %3 = mhlo.reduce(%arg2 init: %0) applies mhlo.add across dimensions = [1] : (tensor<?x2xi32>, tensor<i32>) -> tensor<?xi32>
  %4 = "mhlo.torch_index_select"(%arg3, %3) {batch_dims = 0 : i64, dim = 0 : i64} : (tensor<?x4xf32>, tensor<?xi32>) -> tensor<?x4xf32>
  %5 = mhlo.reduce(%arg4 init: %0) applies mhlo.add across dimensions = [1] : (tensor<?x2xi32>, tensor<i32>) -> tensor<?xi32>
  %6 = "mhlo.torch_index_select"(%arg5, %5) {batch_dims = 0 : i64, dim = 0 : i64} : (tensor<?x4xf32>, tensor<?xi32>) -> tensor<?x4xf32>
  return %2, %4, %6 : tensor<?x4xf32>, tensor<?x4xf32>, tensor<?x4xf32>
}

// -----// IR Dump After Canonicalizer (canonicalize) //----- //
func.func @cuda_kernel_0(%arg0: tensor<?x2xi32> {input.fake_symbolic_shape = #tf_type.shape<137x2>, input.from = "7:0", input.has_one_use = true}, %arg1: tensor<?x4xf32> {input.fake_symbolic_shape = #tf_type.shape<137x4>, input.from = "4:0", input.has_one_use = true}, %arg2: tensor<?x2xi32> {input.fake_symbolic_shape = #tf_type.shape<137x2>, input.from = "8:0", input.has_one_use = true}, %arg3: tensor<?x4xf32> {input.fake_symbolic_shape = #tf_type.shape<137x4>, input.from = "5:0", input.has_one_use = true}, %arg4: tensor<?x2xi32> {input.fake_symbolic_shape = #tf_type.shape<137x2>, input.from = "9:0", input.has_one_use = true}, %arg5: tensor<?x4xf32> {input.fake_symbolic_shape = #tf_type.shape<137x4>, input.from = "6:0", input.has_one_use = true}) -> (tensor<?x4xf32>, tensor<?x4xf32>, tensor<?x4xf32>) attributes {BatchComputeFusion, _nano_compiler_group_idx = 0 : i64, _nano_compiler_op_idx = "10", _nano_compiler_v2, batch_compute_pattern = "FuseGatherV2OpPattern", llvm.emit_c_interface, tf_entry} {
  %0 = mhlo.constant dense<0> : tensor<i32>
  %1 = mhlo.reduce(%arg0 init: %0) applies mhlo.add across dimensions = [1] : (tensor<?x2xi32>, tensor<i32>) -> tensor<?xi32>
  %2 = "mhlo.torch_index_select"(%arg1, %1) {batch_dims = 0 : i64, dim = 0 : i64} : (tensor<?x4xf32>, tensor<?xi32>) -> tensor<?x4xf32>
  %3 = mhlo.reduce(%arg2 init: %0) applies mhlo.add across dimensions = [1] : (tensor<?x2xi32>, tensor<i32>) -> tensor<?xi32>
  %4 = "mhlo.torch_index_select"(%arg3, %3) {batch_dims = 0 : i64, dim = 0 : i64} : (tensor<?x4xf32>, tensor<?xi32>) -> tensor<?x4xf32>
  %5 = mhlo.reduce(%arg4 init: %0) applies mhlo.add across dimensions = [1] : (tensor<?x2xi32>, tensor<i32>) -> tensor<?xi32>
  %6 = "mhlo.torch_index_select"(%arg5, %5) {batch_dims = 0 : i64, dim = 0 : i64} : (tensor<?x4xf32>, tensor<?xi32>) -> tensor<?x4xf32>
  return %2, %4, %6 : tensor<?x4xf32>, tensor<?x4xf32>, tensor<?x4xf32>
}

// -----// IR Dump Before CSE (cse) //----- //
func.func @cuda_kernel_0(%arg0: tensor<?x2xi32> {input.fake_symbolic_shape = #tf_type.shape<137x2>, input.from = "7:0", input.has_one_use = true}, %arg1: tensor<?x4xf32> {input.fake_symbolic_shape = #tf_type.shape<137x4>, input.from = "4:0", input.has_one_use = true}, %arg2: tensor<?x2xi32> {input.fake_symbolic_shape = #tf_type.shape<137x2>, input.from = "8:0", input.has_one_use = true}, %arg3: tensor<?x4xf32> {input.fake_symbolic_shape = #tf_type.shape<137x4>, input.from = "5:0", input.has_one_use = true}, %arg4: tensor<?x2xi32> {input.fake_symbolic_shape = #tf_type.shape<137x2>, input.from = "9:0", input.has_one_use = true}, %arg5: tensor<?x4xf32> {input.fake_symbolic_shape = #tf_type.shape<137x4>, input.from = "6:0", input.has_one_use = true}) -> (tensor<?x4xf32>, tensor<?x4xf32>, tensor<?x4xf32>) attributes {BatchComputeFusion, _nano_compiler_group_idx = 0 : i64, _nano_compiler_op_idx = "10", _nano_compiler_v2, batch_compute_pattern = "FuseGatherV2OpPattern", llvm.emit_c_interface, tf_entry} {
  %0 = mhlo.constant dense<0> : tensor<i32>
  %1 = mhlo.reduce(%arg0 init: %0) applies mhlo.add across dimensions = [1] : (tensor<?x2xi32>, tensor<i32>) -> tensor<?xi32>
  %2 = "mhlo.torch_index_select"(%arg1, %1) {batch_dims = 0 : i64, dim = 0 : i64} : (tensor<?x4xf32>, tensor<?xi32>) -> tensor<?x4xf32>
  %3 = mhlo.reduce(%arg2 init: %0) applies mhlo.add across dimensions = [1] : (tensor<?x2xi32>, tensor<i32>) -> tensor<?xi32>
  %4 = "mhlo.torch_index_select"(%arg3, %3) {batch_dims = 0 : i64, dim = 0 : i64} : (tensor<?x4xf32>, tensor<?xi32>) -> tensor<?x4xf32>
  %5 = mhlo.reduce(%arg4 init: %0) applies mhlo.add across dimensions = [1] : (tensor<?x2xi32>, tensor<i32>) -> tensor<?xi32>
  %6 = "mhlo.torch_index_select"(%arg5, %5) {batch_dims = 0 : i64, dim = 0 : i64} : (tensor<?x4xf32>, tensor<?xi32>) -> tensor<?x4xf32>
  return %2, %4, %6 : tensor<?x4xf32>, tensor<?x4xf32>, tensor<?x4xf32>
}

// -----// IR Dump After CSE (cse) //----- //
func.func @cuda_kernel_0(%arg0: tensor<?x2xi32> {input.fake_symbolic_shape = #tf_type.shape<137x2>, input.from = "7:0", input.has_one_use = true}, %arg1: tensor<?x4xf32> {input.fake_symbolic_shape = #tf_type.shape<137x4>, input.from = "4:0", input.has_one_use = true}, %arg2: tensor<?x2xi32> {input.fake_symbolic_shape = #tf_type.shape<137x2>, input.from = "8:0", input.has_one_use = true}, %arg3: tensor<?x4xf32> {input.fake_symbolic_shape = #tf_type.shape<137x4>, input.from = "5:0", input.has_one_use = true}, %arg4: tensor<?x2xi32> {input.fake_symbolic_shape = #tf_type.shape<137x2>, input.from = "9:0", input.has_one_use = true}, %arg5: tensor<?x4xf32> {input.fake_symbolic_shape = #tf_type.shape<137x4>, input.from = "6:0", input.has_one_use = true}) -> (tensor<?x4xf32>, tensor<?x4xf32>, tensor<?x4xf32>) attributes {BatchComputeFusion, _nano_compiler_group_idx = 0 : i64, _nano_compiler_op_idx = "10", _nano_compiler_v2, batch_compute_pattern = "FuseGatherV2OpPattern", llvm.emit_c_interface, tf_entry} {
  %0 = mhlo.constant dense<0> : tensor<i32>
  %1 = mhlo.reduce(%arg0 init: %0) applies mhlo.add across dimensions = [1] : (tensor<?x2xi32>, tensor<i32>) -> tensor<?xi32>
  %2 = "mhlo.torch_index_select"(%arg1, %1) {batch_dims = 0 : i64, dim = 0 : i64} : (tensor<?x4xf32>, tensor<?xi32>) -> tensor<?x4xf32>
  %3 = mhlo.reduce(%arg2 init: %0) applies mhlo.add across dimensions = [1] : (tensor<?x2xi32>, tensor<i32>) -> tensor<?xi32>
  %4 = "mhlo.torch_index_select"(%arg3, %3) {batch_dims = 0 : i64, dim = 0 : i64} : (tensor<?x4xf32>, tensor<?xi32>) -> tensor<?x4xf32>
  %5 = mhlo.reduce(%arg4 init: %0) applies mhlo.add across dimensions = [1] : (tensor<?x2xi32>, tensor<i32>) -> tensor<?xi32>
  %6 = "mhlo.torch_index_select"(%arg5, %5) {batch_dims = 0 : i64, dim = 0 : i64} : (tensor<?x4xf32>, tensor<?xi32>) -> tensor<?x4xf32>
  return %2, %4, %6 : tensor<?x4xf32>, tensor<?x4xf32>, tensor<?x4xf32>
}

// -----// IR Dump Before HloLegalizeToLinalgPass (hlo-legalize-to-linalg) //----- //
func.func @cuda_kernel_0(%arg0: tensor<?x2xi32> {input.fake_symbolic_shape = #tf_type.shape<137x2>, input.from = "7:0", input.has_one_use = true}, %arg1: tensor<?x4xf32> {input.fake_symbolic_shape = #tf_type.shape<137x4>, input.from = "4:0", input.has_one_use = true}, %arg2: tensor<?x2xi32> {input.fake_symbolic_shape = #tf_type.shape<137x2>, input.from = "8:0", input.has_one_use = true}, %arg3: tensor<?x4xf32> {input.fake_symbolic_shape = #tf_type.shape<137x4>, input.from = "5:0", input.has_one_use = true}, %arg4: tensor<?x2xi32> {input.fake_symbolic_shape = #tf_type.shape<137x2>, input.from = "9:0", input.has_one_use = true}, %arg5: tensor<?x4xf32> {input.fake_symbolic_shape = #tf_type.shape<137x4>, input.from = "6:0", input.has_one_use = true}) -> (tensor<?x4xf32>, tensor<?x4xf32>, tensor<?x4xf32>) attributes {BatchComputeFusion, _nano_compiler_group_idx = 0 : i64, _nano_compiler_op_idx = "10", _nano_compiler_v2, batch_compute_pattern = "FuseGatherV2OpPattern", llvm.emit_c_interface, tf_entry} {
  %0 = mhlo.constant dense<0> : tensor<i32>
  %1 = mhlo.reduce(%arg0 init: %0) applies mhlo.add across dimensions = [1] : (tensor<?x2xi32>, tensor<i32>) -> tensor<?xi32>
  %2 = "mhlo.torch_index_select"(%arg1, %1) {batch_dims = 0 : i64, dim = 0 : i64} : (tensor<?x4xf32>, tensor<?xi32>) -> tensor<?x4xf32>
  %3 = mhlo.reduce(%arg2 init: %0) applies mhlo.add across dimensions = [1] : (tensor<?x2xi32>, tensor<i32>) -> tensor<?xi32>
  %4 = "mhlo.torch_index_select"(%arg3, %3) {batch_dims = 0 : i64, dim = 0 : i64} : (tensor<?x4xf32>, tensor<?xi32>) -> tensor<?x4xf32>
  %5 = mhlo.reduce(%arg4 init: %0) applies mhlo.add across dimensions = [1] : (tensor<?x2xi32>, tensor<i32>) -> tensor<?xi32>
  %6 = "mhlo.torch_index_select"(%arg5, %5) {batch_dims = 0 : i64, dim = 0 : i64} : (tensor<?x4xf32>, tensor<?xi32>) -> tensor<?x4xf32>
  return %2, %4, %6 : tensor<?x4xf32>, tensor<?x4xf32>, tensor<?x4xf32>
}

// -----// IR Dump After HloLegalizeToLinalgPass (hlo-legalize-to-linalg) //----- //
func.func @cuda_kernel_0(%arg0: tensor<?x2xi32> {input.fake_symbolic_shape = #tf_type.shape<137x2>, input.from = "7:0", input.has_one_use = true}, %arg1: tensor<?x4xf32> {input.fake_symbolic_shape = #tf_type.shape<137x4>, input.from = "4:0", input.has_one_use = true}, %arg2: tensor<?x2xi32> {input.fake_symbolic_shape = #tf_type.shape<137x2>, input.from = "8:0", input.has_one_use = true}, %arg3: tensor<?x4xf32> {input.fake_symbolic_shape = #tf_type.shape<137x4>, input.from = "5:0", input.has_one_use = true}, %arg4: tensor<?x2xi32> {input.fake_symbolic_shape = #tf_type.shape<137x2>, input.from = "9:0", input.has_one_use = true}, %arg5: tensor<?x4xf32> {input.fake_symbolic_shape = #tf_type.shape<137x4>, input.from = "6:0", input.has_one_use = true}) -> (tensor<?x4xf32>, tensor<?x4xf32>, tensor<?x4xf32>) attributes {BatchComputeFusion, _nano_compiler_group_idx = 0 : i64, _nano_compiler_op_idx = "10", _nano_compiler_v2, batch_compute_pattern = "FuseGatherV2OpPattern", llvm.emit_c_interface, tf_entry} {
  %cst = arith.constant dense<0> : tensor<i32>
  %c0_i32 = arith.constant 0 : i32
  %c0 = arith.constant 0 : index
  %dim = tensor.dim %arg0, %c0 : tensor<?x2xi32>
  %0 = tensor.empty(%dim) : tensor<?xi32>
  %1 = linalg.fill ins(%c0_i32 : i32) outs(%0 : tensor<?xi32>) -> tensor<?xi32>
  %2 = linalg.generic {indexing_maps = [affine_map<(d0, d1) -> (d0, d1)>, affine_map<(d0, d1) -> (d0)>], iterator_types = ["parallel", "reduction"]} ins(%arg0 : tensor<?x2xi32>) outs(%1 : tensor<?xi32>) {
  ^bb0(%in: i32, %out: i32):
    %from_elements = tensor.from_elements %out : tensor<i32>
    %from_elements_12 = tensor.from_elements %in : tensor<i32>
    %extracted = tensor.extract %from_elements[] : tensor<i32>
    %extracted_13 = tensor.extract %from_elements_12[] : tensor<i32>
    %18 = arith.addi %extracted, %extracted_13 : i32
    %from_elements_14 = tensor.from_elements %18 : tensor<i32>
    %extracted_15 = tensor.extract %from_elements_14[] : tensor<i32>
    linalg.yield %extracted_15 : i32
  } -> tensor<?xi32>
  %c0_0 = arith.constant 0 : index
  %dim_1 = tensor.dim %2, %c0_0 : tensor<?xi32>
  %3 = tensor.empty() : tensor<4xf32>
  %4 = tensor.empty(%dim_1) : tensor<?x4xf32>
  %5 = linalg.generic {indexing_maps = [affine_map<(d0, d1) -> (d0)>, affine_map<(d0, d1) -> (d1)>, affine_map<(d0, d1) -> (d0, d1)>], iterator_types = ["parallel", "parallel"]} ins(%2, %3 : tensor<?xi32>, tensor<4xf32>) outs(%4 : tensor<?x4xf32>) {
  ^bb0(%in: i32, %in_12: f32, %out: f32):
    %18 = arith.index_cast %in : i32 to index
    %19 = linalg.index 1 : index
    %extracted = tensor.extract %arg1[%18, %19] : tensor<?x4xf32>
    linalg.yield %extracted : f32
  } -> tensor<?x4xf32>
  %c0_i32_2 = arith.constant 0 : i32
  %c0_3 = arith.constant 0 : index
  %dim_4 = tensor.dim %arg2, %c0_3 : tensor<?x2xi32>
  %6 = tensor.empty(%dim_4) : tensor<?xi32>
  %7 = linalg.fill ins(%c0_i32_2 : i32) outs(%6 : tensor<?xi32>) -> tensor<?xi32>
  %8 = linalg.generic {indexing_maps = [affine_map<(d0, d1) -> (d0, d1)>, affine_map<(d0, d1) -> (d0)>], iterator_types = ["parallel", "reduction"]} ins(%arg2 : tensor<?x2xi32>) outs(%7 : tensor<?xi32>) {
  ^bb0(%in: i32, %out: i32):
    %from_elements = tensor.from_elements %out : tensor<i32>
    %from_elements_12 = tensor.from_elements %in : tensor<i32>
    %extracted = tensor.extract %from_elements[] : tensor<i32>
    %extracted_13 = tensor.extract %from_elements_12[] : tensor<i32>
    %18 = arith.addi %extracted, %extracted_13 : i32
    %from_elements_14 = tensor.from_elements %18 : tensor<i32>
    %extracted_15 = tensor.extract %from_elements_14[] : tensor<i32>
    linalg.yield %extracted_15 : i32
  } -> tensor<?xi32>
  %c0_5 = arith.constant 0 : index
  %dim_6 = tensor.dim %8, %c0_5 : tensor<?xi32>
  %9 = tensor.empty() : tensor<4xf32>
  %10 = tensor.empty(%dim_6) : tensor<?x4xf32>
  %11 = linalg.generic {indexing_maps = [affine_map<(d0, d1) -> (d0)>, affine_map<(d0, d1) -> (d1)>, affine_map<(d0, d1) -> (d0, d1)>], iterator_types = ["parallel", "parallel"]} ins(%8, %9 : tensor<?xi32>, tensor<4xf32>) outs(%10 : tensor<?x4xf32>) {
  ^bb0(%in: i32, %in_12: f32, %out: f32):
    %18 = arith.index_cast %in : i32 to index
    %19 = linalg.index 1 : index
    %extracted = tensor.extract %arg3[%18, %19] : tensor<?x4xf32>
    linalg.yield %extracted : f32
  } -> tensor<?x4xf32>
  %c0_i32_7 = arith.constant 0 : i32
  %c0_8 = arith.constant 0 : index
  %dim_9 = tensor.dim %arg4, %c0_8 : tensor<?x2xi32>
  %12 = tensor.empty(%dim_9) : tensor<?xi32>
  %13 = linalg.fill ins(%c0_i32_7 : i32) outs(%12 : tensor<?xi32>) -> tensor<?xi32>
  %14 = linalg.generic {indexing_maps = [affine_map<(d0, d1) -> (d0, d1)>, affine_map<(d0, d1) -> (d0)>], iterator_types = ["parallel", "reduction"]} ins(%arg4 : tensor<?x2xi32>) outs(%13 : tensor<?xi32>) {
  ^bb0(%in: i32, %out: i32):
    %from_elements = tensor.from_elements %out : tensor<i32>
    %from_elements_12 = tensor.from_elements %in : tensor<i32>
    %extracted = tensor.extract %from_elements[] : tensor<i32>
    %extracted_13 = tensor.extract %from_elements_12[] : tensor<i32>
    %18 = arith.addi %extracted, %extracted_13 : i32
    %from_elements_14 = tensor.from_elements %18 : tensor<i32>
    %extracted_15 = tensor.extract %from_elements_14[] : tensor<i32>
    linalg.yield %extracted_15 : i32
  } -> tensor<?xi32>
  %c0_10 = arith.constant 0 : index
  %dim_11 = tensor.dim %14, %c0_10 : tensor<?xi32>
  %15 = tensor.empty() : tensor<4xf32>
  %16 = tensor.empty(%dim_11) : tensor<?x4xf32>
  %17 = linalg.generic {indexing_maps = [affine_map<(d0, d1) -> (d0)>, affine_map<(d0, d1) -> (d1)>, affine_map<(d0, d1) -> (d0, d1)>], iterator_types = ["parallel", "parallel"]} ins(%14, %15 : tensor<?xi32>, tensor<4xf32>) outs(%16 : tensor<?x4xf32>) {
  ^bb0(%in: i32, %in_12: f32, %out: f32):
    %18 = arith.index_cast %in : i32 to index
    %19 = linalg.index 1 : index
    %extracted = tensor.extract %arg5[%18, %19] : tensor<?x4xf32>
    linalg.yield %extracted : f32
  } -> tensor<?x4xf32>
  return %5, %11, %17 : tensor<?x4xf32>, tensor<?x4xf32>, tensor<?x4xf32>
}

// -----// IR Dump Before CustomHloLegalizeToLinalgPass (custom-hlo-legalize-to-linalg) //----- //
func.func @cuda_kernel_0(%arg0: tensor<?x2xi32> {input.fake_symbolic_shape = #tf_type.shape<137x2>, input.from = "7:0", input.has_one_use = true}, %arg1: tensor<?x4xf32> {input.fake_symbolic_shape = #tf_type.shape<137x4>, input.from = "4:0", input.has_one_use = true}, %arg2: tensor<?x2xi32> {input.fake_symbolic_shape = #tf_type.shape<137x2>, input.from = "8:0", input.has_one_use = true}, %arg3: tensor<?x4xf32> {input.fake_symbolic_shape = #tf_type.shape<137x4>, input.from = "5:0", input.has_one_use = true}, %arg4: tensor<?x2xi32> {input.fake_symbolic_shape = #tf_type.shape<137x2>, input.from = "9:0", input.has_one_use = true}, %arg5: tensor<?x4xf32> {input.fake_symbolic_shape = #tf_type.shape<137x4>, input.from = "6:0", input.has_one_use = true}) -> (tensor<?x4xf32>, tensor<?x4xf32>, tensor<?x4xf32>) attributes {BatchComputeFusion, _nano_compiler_group_idx = 0 : i64, _nano_compiler_op_idx = "10", _nano_compiler_v2, batch_compute_pattern = "FuseGatherV2OpPattern", llvm.emit_c_interface, tf_entry} {
  %cst = arith.constant dense<0> : tensor<i32>
  %c0_i32 = arith.constant 0 : i32
  %c0 = arith.constant 0 : index
  %dim = tensor.dim %arg0, %c0 : tensor<?x2xi32>
  %0 = tensor.empty(%dim) : tensor<?xi32>
  %1 = linalg.fill ins(%c0_i32 : i32) outs(%0 : tensor<?xi32>) -> tensor<?xi32>
  %2 = linalg.generic {indexing_maps = [affine_map<(d0, d1) -> (d0, d1)>, affine_map<(d0, d1) -> (d0)>], iterator_types = ["parallel", "reduction"]} ins(%arg0 : tensor<?x2xi32>) outs(%1 : tensor<?xi32>) {
  ^bb0(%in: i32, %out: i32):
    %from_elements = tensor.from_elements %out : tensor<i32>
    %from_elements_12 = tensor.from_elements %in : tensor<i32>
    %extracted = tensor.extract %from_elements[] : tensor<i32>
    %extracted_13 = tensor.extract %from_elements_12[] : tensor<i32>
    %18 = arith.addi %extracted, %extracted_13 : i32
    %from_elements_14 = tensor.from_elements %18 : tensor<i32>
    %extracted_15 = tensor.extract %from_elements_14[] : tensor<i32>
    linalg.yield %extracted_15 : i32
  } -> tensor<?xi32>
  %c0_0 = arith.constant 0 : index
  %dim_1 = tensor.dim %2, %c0_0 : tensor<?xi32>
  %3 = tensor.empty() : tensor<4xf32>
  %4 = tensor.empty(%dim_1) : tensor<?x4xf32>
  %5 = linalg.generic {indexing_maps = [affine_map<(d0, d1) -> (d0)>, affine_map<(d0, d1) -> (d1)>, affine_map<(d0, d1) -> (d0, d1)>], iterator_types = ["parallel", "parallel"]} ins(%2, %3 : tensor<?xi32>, tensor<4xf32>) outs(%4 : tensor<?x4xf32>) {
  ^bb0(%in: i32, %in_12: f32, %out: f32):
    %18 = arith.index_cast %in : i32 to index
    %19 = linalg.index 1 : index
    %extracted = tensor.extract %arg1[%18, %19] : tensor<?x4xf32>
    linalg.yield %extracted : f32
  } -> tensor<?x4xf32>
  %c0_i32_2 = arith.constant 0 : i32
  %c0_3 = arith.constant 0 : index
  %dim_4 = tensor.dim %arg2, %c0_3 : tensor<?x2xi32>
  %6 = tensor.empty(%dim_4) : tensor<?xi32>
  %7 = linalg.fill ins(%c0_i32_2 : i32) outs(%6 : tensor<?xi32>) -> tensor<?xi32>
  %8 = linalg.generic {indexing_maps = [affine_map<(d0, d1) -> (d0, d1)>, affine_map<(d0, d1) -> (d0)>], iterator_types = ["parallel", "reduction"]} ins(%arg2 : tensor<?x2xi32>) outs(%7 : tensor<?xi32>) {
  ^bb0(%in: i32, %out: i32):
    %from_elements = tensor.from_elements %out : tensor<i32>
    %from_elements_12 = tensor.from_elements %in : tensor<i32>
    %extracted = tensor.extract %from_elements[] : tensor<i32>
    %extracted_13 = tensor.extract %from_elements_12[] : tensor<i32>
    %18 = arith.addi %extracted, %extracted_13 : i32
    %from_elements_14 = tensor.from_elements %18 : tensor<i32>
    %extracted_15 = tensor.extract %from_elements_14[] : tensor<i32>
    linalg.yield %extracted_15 : i32
  } -> tensor<?xi32>
  %c0_5 = arith.constant 0 : index
  %dim_6 = tensor.dim %8, %c0_5 : tensor<?xi32>
  %9 = tensor.empty() : tensor<4xf32>
  %10 = tensor.empty(%dim_6) : tensor<?x4xf32>
  %11 = linalg.generic {indexing_maps = [affine_map<(d0, d1) -> (d0)>, affine_map<(d0, d1) -> (d1)>, affine_map<(d0, d1) -> (d0, d1)>], iterator_types = ["parallel", "parallel"]} ins(%8, %9 : tensor<?xi32>, tensor<4xf32>) outs(%10 : tensor<?x4xf32>) {
  ^bb0(%in: i32, %in_12: f32, %out: f32):
    %18 = arith.index_cast %in : i32 to index
    %19 = linalg.index 1 : index
    %extracted = tensor.extract %arg3[%18, %19] : tensor<?x4xf32>
    linalg.yield %extracted : f32
  } -> tensor<?x4xf32>
  %c0_i32_7 = arith.constant 0 : i32
  %c0_8 = arith.constant 0 : index
  %dim_9 = tensor.dim %arg4, %c0_8 : tensor<?x2xi32>
  %12 = tensor.empty(%dim_9) : tensor<?xi32>
  %13 = linalg.fill ins(%c0_i32_7 : i32) outs(%12 : tensor<?xi32>) -> tensor<?xi32>
  %14 = linalg.generic {indexing_maps = [affine_map<(d0, d1) -> (d0, d1)>, affine_map<(d0, d1) -> (d0)>], iterator_types = ["parallel", "reduction"]} ins(%arg4 : tensor<?x2xi32>) outs(%13 : tensor<?xi32>) {
  ^bb0(%in: i32, %out: i32):
    %from_elements = tensor.from_elements %out : tensor<i32>
    %from_elements_12 = tensor.from_elements %in : tensor<i32>
    %extracted = tensor.extract %from_elements[] : tensor<i32>
    %extracted_13 = tensor.extract %from_elements_12[] : tensor<i32>
    %18 = arith.addi %extracted, %extracted_13 : i32
    %from_elements_14 = tensor.from_elements %18 : tensor<i32>
    %extracted_15 = tensor.extract %from_elements_14[] : tensor<i32>
    linalg.yield %extracted_15 : i32
  } -> tensor<?xi32>
  %c0_10 = arith.constant 0 : index
  %dim_11 = tensor.dim %14, %c0_10 : tensor<?xi32>
  %15 = tensor.empty() : tensor<4xf32>
  %16 = tensor.empty(%dim_11) : tensor<?x4xf32>
  %17 = linalg.generic {indexing_maps = [affine_map<(d0, d1) -> (d0)>, affine_map<(d0, d1) -> (d1)>, affine_map<(d0, d1) -> (d0, d1)>], iterator_types = ["parallel", "parallel"]} ins(%14, %15 : tensor<?xi32>, tensor<4xf32>) outs(%16 : tensor<?x4xf32>) {
  ^bb0(%in: i32, %in_12: f32, %out: f32):
    %18 = arith.index_cast %in : i32 to index
    %19 = linalg.index 1 : index
    %extracted = tensor.extract %arg5[%18, %19] : tensor<?x4xf32>
    linalg.yield %extracted : f32
  } -> tensor<?x4xf32>
  return %5, %11, %17 : tensor<?x4xf32>, tensor<?x4xf32>, tensor<?x4xf32>
}

// -----// IR Dump After CustomHloLegalizeToLinalgPass (custom-hlo-legalize-to-linalg) //----- //
func.func @cuda_kernel_0(%arg0: tensor<?x2xi32> {input.fake_symbolic_shape = #tf_type.shape<137x2>, input.from = "7:0", input.has_one_use = true}, %arg1: tensor<?x4xf32> {input.fake_symbolic_shape = #tf_type.shape<137x4>, input.from = "4:0", input.has_one_use = true}, %arg2: tensor<?x2xi32> {input.fake_symbolic_shape = #tf_type.shape<137x2>, input.from = "8:0", input.has_one_use = true}, %arg3: tensor<?x4xf32> {input.fake_symbolic_shape = #tf_type.shape<137x4>, input.from = "5:0", input.has_one_use = true}, %arg4: tensor<?x2xi32> {input.fake_symbolic_shape = #tf_type.shape<137x2>, input.from = "9:0", input.has_one_use = true}, %arg5: tensor<?x4xf32> {input.fake_symbolic_shape = #tf_type.shape<137x4>, input.from = "6:0", input.has_one_use = true}) -> (tensor<?x4xf32>, tensor<?x4xf32>, tensor<?x4xf32>) attributes {BatchComputeFusion, _nano_compiler_group_idx = 0 : i64, _nano_compiler_op_idx = "10", _nano_compiler_v2, batch_compute_pattern = "FuseGatherV2OpPattern", llvm.emit_c_interface, tf_entry} {
  %cst = arith.constant dense<0> : tensor<i32>
  %c0_i32 = arith.constant 0 : i32
  %c0 = arith.constant 0 : index
  %dim = tensor.dim %arg0, %c0 : tensor<?x2xi32>
  %0 = tensor.empty(%dim) : tensor<?xi32>
  %1 = linalg.fill ins(%c0_i32 : i32) outs(%0 : tensor<?xi32>) -> tensor<?xi32>
  %2 = linalg.generic {indexing_maps = [affine_map<(d0, d1) -> (d0, d1)>, affine_map<(d0, d1) -> (d0)>], iterator_types = ["parallel", "reduction"]} ins(%arg0 : tensor<?x2xi32>) outs(%1 : tensor<?xi32>) {
  ^bb0(%in: i32, %out: i32):
    %from_elements = tensor.from_elements %out : tensor<i32>
    %from_elements_12 = tensor.from_elements %in : tensor<i32>
    %extracted = tensor.extract %from_elements[] : tensor<i32>
    %extracted_13 = tensor.extract %from_elements_12[] : tensor<i32>
    %18 = arith.addi %extracted, %extracted_13 : i32
    %from_elements_14 = tensor.from_elements %18 : tensor<i32>
    %extracted_15 = tensor.extract %from_elements_14[] : tensor<i32>
    linalg.yield %extracted_15 : i32
  } -> tensor<?xi32>
  %c0_0 = arith.constant 0 : index
  %dim_1 = tensor.dim %2, %c0_0 : tensor<?xi32>
  %3 = tensor.empty() : tensor<4xf32>
  %4 = tensor.empty(%dim_1) : tensor<?x4xf32>
  %5 = linalg.generic {indexing_maps = [affine_map<(d0, d1) -> (d0)>, affine_map<(d0, d1) -> (d1)>, affine_map<(d0, d1) -> (d0, d1)>], iterator_types = ["parallel", "parallel"]} ins(%2, %3 : tensor<?xi32>, tensor<4xf32>) outs(%4 : tensor<?x4xf32>) {
  ^bb0(%in: i32, %in_12: f32, %out: f32):
    %18 = arith.index_cast %in : i32 to index
    %19 = linalg.index 1 : index
    %extracted = tensor.extract %arg1[%18, %19] : tensor<?x4xf32>
    linalg.yield %extracted : f32
  } -> tensor<?x4xf32>
  %c0_i32_2 = arith.constant 0 : i32
  %c0_3 = arith.constant 0 : index
  %dim_4 = tensor.dim %arg2, %c0_3 : tensor<?x2xi32>
  %6 = tensor.empty(%dim_4) : tensor<?xi32>
  %7 = linalg.fill ins(%c0_i32_2 : i32) outs(%6 : tensor<?xi32>) -> tensor<?xi32>
  %8 = linalg.generic {indexing_maps = [affine_map<(d0, d1) -> (d0, d1)>, affine_map<(d0, d1) -> (d0)>], iterator_types = ["parallel", "reduction"]} ins(%arg2 : tensor<?x2xi32>) outs(%7 : tensor<?xi32>) {
  ^bb0(%in: i32, %out: i32):
    %from_elements = tensor.from_elements %out : tensor<i32>
    %from_elements_12 = tensor.from_elements %in : tensor<i32>
    %extracted = tensor.extract %from_elements[] : tensor<i32>
    %extracted_13 = tensor.extract %from_elements_12[] : tensor<i32>
    %18 = arith.addi %extracted, %extracted_13 : i32
    %from_elements_14 = tensor.from_elements %18 : tensor<i32>
    %extracted_15 = tensor.extract %from_elements_14[] : tensor<i32>
    linalg.yield %extracted_15 : i32
  } -> tensor<?xi32>
  %c0_5 = arith.constant 0 : index
  %dim_6 = tensor.dim %8, %c0_5 : tensor<?xi32>
  %9 = tensor.empty() : tensor<4xf32>
  %10 = tensor.empty(%dim_6) : tensor<?x4xf32>
  %11 = linalg.generic {indexing_maps = [affine_map<(d0, d1) -> (d0)>, affine_map<(d0, d1) -> (d1)>, affine_map<(d0, d1) -> (d0, d1)>], iterator_types = ["parallel", "parallel"]} ins(%8, %9 : tensor<?xi32>, tensor<4xf32>) outs(%10 : tensor<?x4xf32>) {
  ^bb0(%in: i32, %in_12: f32, %out: f32):
    %18 = arith.index_cast %in : i32 to index
    %19 = linalg.index 1 : index
    %extracted = tensor.extract %arg3[%18, %19] : tensor<?x4xf32>
    linalg.yield %extracted : f32
  } -> tensor<?x4xf32>
  %c0_i32_7 = arith.constant 0 : i32
  %c0_8 = arith.constant 0 : index
  %dim_9 = tensor.dim %arg4, %c0_8 : tensor<?x2xi32>
  %12 = tensor.empty(%dim_9) : tensor<?xi32>
  %13 = linalg.fill ins(%c0_i32_7 : i32) outs(%12 : tensor<?xi32>) -> tensor<?xi32>
  %14 = linalg.generic {indexing_maps = [affine_map<(d0, d1) -> (d0, d1)>, affine_map<(d0, d1) -> (d0)>], iterator_types = ["parallel", "reduction"]} ins(%arg4 : tensor<?x2xi32>) outs(%13 : tensor<?xi32>) {
  ^bb0(%in: i32, %out: i32):
    %from_elements = tensor.from_elements %out : tensor<i32>
    %from_elements_12 = tensor.from_elements %in : tensor<i32>
    %extracted = tensor.extract %from_elements[] : tensor<i32>
    %extracted_13 = tensor.extract %from_elements_12[] : tensor<i32>
    %18 = arith.addi %extracted, %extracted_13 : i32
    %from_elements_14 = tensor.from_elements %18 : tensor<i32>
    %extracted_15 = tensor.extract %from_elements_14[] : tensor<i32>
    linalg.yield %extracted_15 : i32
  } -> tensor<?xi32>
  %c0_10 = arith.constant 0 : index
  %dim_11 = tensor.dim %14, %c0_10 : tensor<?xi32>
  %15 = tensor.empty() : tensor<4xf32>
  %16 = tensor.empty(%dim_11) : tensor<?x4xf32>
  %17 = linalg.generic {indexing_maps = [affine_map<(d0, d1) -> (d0)>, affine_map<(d0, d1) -> (d1)>, affine_map<(d0, d1) -> (d0, d1)>], iterator_types = ["parallel", "parallel"]} ins(%14, %15 : tensor<?xi32>, tensor<4xf32>) outs(%16 : tensor<?x4xf32>) {
  ^bb0(%in: i32, %in_12: f32, %out: f32):
    %18 = arith.index_cast %in : i32 to index
    %19 = linalg.index 1 : index
    %extracted = tensor.extract %arg5[%18, %19] : tensor<?x4xf32>
    linalg.yield %extracted : f32
  } -> tensor<?x4xf32>
  return %5, %11, %17 : tensor<?x4xf32>, tensor<?x4xf32>, tensor<?x4xf32>
}

// -----// IR Dump Before HloLegalizeToArithmeticPass (hlo-legalize-to-arithmetic) //----- //
#map = affine_map<(d0, d1) -> (d0, d1)>
#map1 = affine_map<(d0, d1) -> (d0)>
#map2 = affine_map<(d0, d1) -> (d1)>
module {
  func.func @cuda_kernel_0(%arg0: tensor<?x2xi32> {input.fake_symbolic_shape = #tf_type.shape<137x2>, input.from = "7:0", input.has_one_use = true}, %arg1: tensor<?x4xf32> {input.fake_symbolic_shape = #tf_type.shape<137x4>, input.from = "4:0", input.has_one_use = true}, %arg2: tensor<?x2xi32> {input.fake_symbolic_shape = #tf_type.shape<137x2>, input.from = "8:0", input.has_one_use = true}, %arg3: tensor<?x4xf32> {input.fake_symbolic_shape = #tf_type.shape<137x4>, input.from = "5:0", input.has_one_use = true}, %arg4: tensor<?x2xi32> {input.fake_symbolic_shape = #tf_type.shape<137x2>, input.from = "9:0", input.has_one_use = true}, %arg5: tensor<?x4xf32> {input.fake_symbolic_shape = #tf_type.shape<137x4>, input.from = "6:0", input.has_one_use = true}) -> (tensor<?x4xf32>, tensor<?x4xf32>, tensor<?x4xf32>) attributes {BatchComputeFusion, _nano_compiler_group_idx = 0 : i64, _nano_compiler_op_idx = "10", _nano_compiler_v2, batch_compute_pattern = "FuseGatherV2OpPattern", llvm.emit_c_interface, tf_entry} {
    %cst = arith.constant dense<0> : tensor<i32>
    %c0_i32 = arith.constant 0 : i32
    %c0 = arith.constant 0 : index
    %dim = tensor.dim %arg0, %c0 : tensor<?x2xi32>
    %0 = tensor.empty(%dim) : tensor<?xi32>
    %1 = linalg.fill ins(%c0_i32 : i32) outs(%0 : tensor<?xi32>) -> tensor<?xi32>
    %2 = linalg.generic {indexing_maps = [#map, #map1], iterator_types = ["parallel", "reduction"]} ins(%arg0 : tensor<?x2xi32>) outs(%1 : tensor<?xi32>) {
    ^bb0(%in: i32, %out: i32):
      %from_elements = tensor.from_elements %out : tensor<i32>
      %from_elements_12 = tensor.from_elements %in : tensor<i32>
      %extracted = tensor.extract %from_elements[] : tensor<i32>
      %extracted_13 = tensor.extract %from_elements_12[] : tensor<i32>
      %18 = arith.addi %extracted, %extracted_13 : i32
      %from_elements_14 = tensor.from_elements %18 : tensor<i32>
      %extracted_15 = tensor.extract %from_elements_14[] : tensor<i32>
      linalg.yield %extracted_15 : i32
    } -> tensor<?xi32>
    %c0_0 = arith.constant 0 : index
    %dim_1 = tensor.dim %2, %c0_0 : tensor<?xi32>
    %3 = tensor.empty() : tensor<4xf32>
    %4 = tensor.empty(%dim_1) : tensor<?x4xf32>
    %5 = linalg.generic {indexing_maps = [#map1, #map2, #map], iterator_types = ["parallel", "parallel"]} ins(%2, %3 : tensor<?xi32>, tensor<4xf32>) outs(%4 : tensor<?x4xf32>) {
    ^bb0(%in: i32, %in_12: f32, %out: f32):
      %18 = arith.index_cast %in : i32 to index
      %19 = linalg.index 1 : index
      %extracted = tensor.extract %arg1[%18, %19] : tensor<?x4xf32>
      linalg.yield %extracted : f32
    } -> tensor<?x4xf32>
    %c0_i32_2 = arith.constant 0 : i32
    %c0_3 = arith.constant 0 : index
    %dim_4 = tensor.dim %arg2, %c0_3 : tensor<?x2xi32>
    %6 = tensor.empty(%dim_4) : tensor<?xi32>
    %7 = linalg.fill ins(%c0_i32_2 : i32) outs(%6 : tensor<?xi32>) -> tensor<?xi32>
    %8 = linalg.generic {indexing_maps = [#map, #map1], iterator_types = ["parallel", "reduction"]} ins(%arg2 : tensor<?x2xi32>) outs(%7 : tensor<?xi32>) {
    ^bb0(%in: i32, %out: i32):
      %from_elements = tensor.from_elements %out : tensor<i32>
      %from_elements_12 = tensor.from_elements %in : tensor<i32>
      %extracted = tensor.extract %from_elements[] : tensor<i32>
      %extracted_13 = tensor.extract %from_elements_12[] : tensor<i32>
      %18 = arith.addi %extracted, %extracted_13 : i32
      %from_elements_14 = tensor.from_elements %18 : tensor<i32>
      %extracted_15 = tensor.extract %from_elements_14[] : tensor<i32>
      linalg.yield %extracted_15 : i32
    } -> tensor<?xi32>
    %c0_5 = arith.constant 0 : index
    %dim_6 = tensor.dim %8, %c0_5 : tensor<?xi32>
    %9 = tensor.empty() : tensor<4xf32>
    %10 = tensor.empty(%dim_6) : tensor<?x4xf32>
    %11 = linalg.generic {indexing_maps = [#map1, #map2, #map], iterator_types = ["parallel", "parallel"]} ins(%8, %9 : tensor<?xi32>, tensor<4xf32>) outs(%10 : tensor<?x4xf32>) {
    ^bb0(%in: i32, %in_12: f32, %out: f32):
      %18 = arith.index_cast %in : i32 to index
      %19 = linalg.index 1 : index
      %extracted = tensor.extract %arg3[%18, %19] : tensor<?x4xf32>
      linalg.yield %extracted : f32
    } -> tensor<?x4xf32>
    %c0_i32_7 = arith.constant 0 : i32
    %c0_8 = arith.constant 0 : index
    %dim_9 = tensor.dim %arg4, %c0_8 : tensor<?x2xi32>
    %12 = tensor.empty(%dim_9) : tensor<?xi32>
    %13 = linalg.fill ins(%c0_i32_7 : i32) outs(%12 : tensor<?xi32>) -> tensor<?xi32>
    %14 = linalg.generic {indexing_maps = [#map, #map1], iterator_types = ["parallel", "reduction"]} ins(%arg4 : tensor<?x2xi32>) outs(%13 : tensor<?xi32>) {
    ^bb0(%in: i32, %out: i32):
      %from_elements = tensor.from_elements %out : tensor<i32>
      %from_elements_12 = tensor.from_elements %in : tensor<i32>
      %extracted = tensor.extract %from_elements[] : tensor<i32>
      %extracted_13 = tensor.extract %from_elements_12[] : tensor<i32>
      %18 = arith.addi %extracted, %extracted_13 : i32
      %from_elements_14 = tensor.from_elements %18 : tensor<i32>
      %extracted_15 = tensor.extract %from_elements_14[] : tensor<i32>
      linalg.yield %extracted_15 : i32
    } -> tensor<?xi32>
    %c0_10 = arith.constant 0 : index
    %dim_11 = tensor.dim %14, %c0_10 : tensor<?xi32>
    %15 = tensor.empty() : tensor<4xf32>
    %16 = tensor.empty(%dim_11) : tensor<?x4xf32>
    %17 = linalg.generic {indexing_maps = [#map1, #map2, #map], iterator_types = ["parallel", "parallel"]} ins(%14, %15 : tensor<?xi32>, tensor<4xf32>) outs(%16 : tensor<?x4xf32>) {
    ^bb0(%in: i32, %in_12: f32, %out: f32):
      %18 = arith.index_cast %in : i32 to index
      %19 = linalg.index 1 : index
      %extracted = tensor.extract %arg5[%18, %19] : tensor<?x4xf32>
      linalg.yield %extracted : f32
    } -> tensor<?x4xf32>
    return %5, %11, %17 : tensor<?x4xf32>, tensor<?x4xf32>, tensor<?x4xf32>
  }
}


// -----// IR Dump After HloLegalizeToArithmeticPass (hlo-legalize-to-arithmetic) //----- //
#map = affine_map<(d0, d1) -> (d0, d1)>
#map1 = affine_map<(d0, d1) -> (d0)>
#map2 = affine_map<(d0, d1) -> (d1)>
module {
  func.func @cuda_kernel_0(%arg0: tensor<?x2xi32> {input.fake_symbolic_shape = #tf_type.shape<137x2>, input.from = "7:0", input.has_one_use = true}, %arg1: tensor<?x4xf32> {input.fake_symbolic_shape = #tf_type.shape<137x4>, input.from = "4:0", input.has_one_use = true}, %arg2: tensor<?x2xi32> {input.fake_symbolic_shape = #tf_type.shape<137x2>, input.from = "8:0", input.has_one_use = true}, %arg3: tensor<?x4xf32> {input.fake_symbolic_shape = #tf_type.shape<137x4>, input.from = "5:0", input.has_one_use = true}, %arg4: tensor<?x2xi32> {input.fake_symbolic_shape = #tf_type.shape<137x2>, input.from = "9:0", input.has_one_use = true}, %arg5: tensor<?x4xf32> {input.fake_symbolic_shape = #tf_type.shape<137x4>, input.from = "6:0", input.has_one_use = true}) -> (tensor<?x4xf32>, tensor<?x4xf32>, tensor<?x4xf32>) attributes {BatchComputeFusion, _nano_compiler_group_idx = 0 : i64, _nano_compiler_op_idx = "10", _nano_compiler_v2, batch_compute_pattern = "FuseGatherV2OpPattern", llvm.emit_c_interface, tf_entry} {
    %cst = arith.constant dense<0> : tensor<i32>
    %c0_i32 = arith.constant 0 : i32
    %c0 = arith.constant 0 : index
    %dim = tensor.dim %arg0, %c0 : tensor<?x2xi32>
    %0 = tensor.empty(%dim) : tensor<?xi32>
    %1 = linalg.fill ins(%c0_i32 : i32) outs(%0 : tensor<?xi32>) -> tensor<?xi32>
    %2 = linalg.generic {indexing_maps = [#map, #map1], iterator_types = ["parallel", "reduction"]} ins(%arg0 : tensor<?x2xi32>) outs(%1 : tensor<?xi32>) {
    ^bb0(%in: i32, %out: i32):
      %from_elements = tensor.from_elements %out : tensor<i32>
      %from_elements_12 = tensor.from_elements %in : tensor<i32>
      %extracted = tensor.extract %from_elements[] : tensor<i32>
      %extracted_13 = tensor.extract %from_elements_12[] : tensor<i32>
      %18 = arith.addi %extracted, %extracted_13 : i32
      %from_elements_14 = tensor.from_elements %18 : tensor<i32>
      %extracted_15 = tensor.extract %from_elements_14[] : tensor<i32>
      linalg.yield %extracted_15 : i32
    } -> tensor<?xi32>
    %c0_0 = arith.constant 0 : index
    %dim_1 = tensor.dim %2, %c0_0 : tensor<?xi32>
    %3 = tensor.empty() : tensor<4xf32>
    %4 = tensor.empty(%dim_1) : tensor<?x4xf32>
    %5 = linalg.generic {indexing_maps = [#map1, #map2, #map], iterator_types = ["parallel", "parallel"]} ins(%2, %3 : tensor<?xi32>, tensor<4xf32>) outs(%4 : tensor<?x4xf32>) {
    ^bb0(%in: i32, %in_12: f32, %out: f32):
      %18 = arith.index_cast %in : i32 to index
      %19 = linalg.index 1 : index
      %extracted = tensor.extract %arg1[%18, %19] : tensor<?x4xf32>
      linalg.yield %extracted : f32
    } -> tensor<?x4xf32>
    %c0_i32_2 = arith.constant 0 : i32
    %c0_3 = arith.constant 0 : index
    %dim_4 = tensor.dim %arg2, %c0_3 : tensor<?x2xi32>
    %6 = tensor.empty(%dim_4) : tensor<?xi32>
    %7 = linalg.fill ins(%c0_i32_2 : i32) outs(%6 : tensor<?xi32>) -> tensor<?xi32>
    %8 = linalg.generic {indexing_maps = [#map, #map1], iterator_types = ["parallel", "reduction"]} ins(%arg2 : tensor<?x2xi32>) outs(%7 : tensor<?xi32>) {
    ^bb0(%in: i32, %out: i32):
      %from_elements = tensor.from_elements %out : tensor<i32>
      %from_elements_12 = tensor.from_elements %in : tensor<i32>
      %extracted = tensor.extract %from_elements[] : tensor<i32>
      %extracted_13 = tensor.extract %from_elements_12[] : tensor<i32>
      %18 = arith.addi %extracted, %extracted_13 : i32
      %from_elements_14 = tensor.from_elements %18 : tensor<i32>
      %extracted_15 = tensor.extract %from_elements_14[] : tensor<i32>
      linalg.yield %extracted_15 : i32
    } -> tensor<?xi32>
    %c0_5 = arith.constant 0 : index
    %dim_6 = tensor.dim %8, %c0_5 : tensor<?xi32>
    %9 = tensor.empty() : tensor<4xf32>
    %10 = tensor.empty(%dim_6) : tensor<?x4xf32>
    %11 = linalg.generic {indexing_maps = [#map1, #map2, #map], iterator_types = ["parallel", "parallel"]} ins(%8, %9 : tensor<?xi32>, tensor<4xf32>) outs(%10 : tensor<?x4xf32>) {
    ^bb0(%in: i32, %in_12: f32, %out: f32):
      %18 = arith.index_cast %in : i32 to index
      %19 = linalg.index 1 : index
      %extracted = tensor.extract %arg3[%18, %19] : tensor<?x4xf32>
      linalg.yield %extracted : f32
    } -> tensor<?x4xf32>
    %c0_i32_7 = arith.constant 0 : i32
    %c0_8 = arith.constant 0 : index
    %dim_9 = tensor.dim %arg4, %c0_8 : tensor<?x2xi32>
    %12 = tensor.empty(%dim_9) : tensor<?xi32>
    %13 = linalg.fill ins(%c0_i32_7 : i32) outs(%12 : tensor<?xi32>) -> tensor<?xi32>
    %14 = linalg.generic {indexing_maps = [#map, #map1], iterator_types = ["parallel", "reduction"]} ins(%arg4 : tensor<?x2xi32>) outs(%13 : tensor<?xi32>) {
    ^bb0(%in: i32, %out: i32):
      %from_elements = tensor.from_elements %out : tensor<i32>
      %from_elements_12 = tensor.from_elements %in : tensor<i32>
      %extracted = tensor.extract %from_elements[] : tensor<i32>
      %extracted_13 = tensor.extract %from_elements_12[] : tensor<i32>
      %18 = arith.addi %extracted, %extracted_13 : i32
      %from_elements_14 = tensor.from_elements %18 : tensor<i32>
      %extracted_15 = tensor.extract %from_elements_14[] : tensor<i32>
      linalg.yield %extracted_15 : i32
    } -> tensor<?xi32>
    %c0_10 = arith.constant 0 : index
    %dim_11 = tensor.dim %14, %c0_10 : tensor<?xi32>
    %15 = tensor.empty() : tensor<4xf32>
    %16 = tensor.empty(%dim_11) : tensor<?x4xf32>
    %17 = linalg.generic {indexing_maps = [#map1, #map2, #map], iterator_types = ["parallel", "parallel"]} ins(%14, %15 : tensor<?xi32>, tensor<4xf32>) outs(%16 : tensor<?x4xf32>) {
    ^bb0(%in: i32, %in_12: f32, %out: f32):
      %18 = arith.index_cast %in : i32 to index
      %19 = linalg.index 1 : index
      %extracted = tensor.extract %arg5[%18, %19] : tensor<?x4xf32>
      linalg.yield %extracted : f32
    } -> tensor<?x4xf32>
    return %5, %11, %17 : tensor<?x4xf32>, tensor<?x4xf32>, tensor<?x4xf32>
  }
}


// -----// IR Dump Before HloLegalizeShapeOpsToStandardPass (hlo-legalize-shapeops-to-standard) //----- //
func.func @cuda_kernel_0(%arg0: tensor<?x2xi32> {input.fake_symbolic_shape = #tf_type.shape<137x2>, input.from = "7:0", input.has_one_use = true}, %arg1: tensor<?x4xf32> {input.fake_symbolic_shape = #tf_type.shape<137x4>, input.from = "4:0", input.has_one_use = true}, %arg2: tensor<?x2xi32> {input.fake_symbolic_shape = #tf_type.shape<137x2>, input.from = "8:0", input.has_one_use = true}, %arg3: tensor<?x4xf32> {input.fake_symbolic_shape = #tf_type.shape<137x4>, input.from = "5:0", input.has_one_use = true}, %arg4: tensor<?x2xi32> {input.fake_symbolic_shape = #tf_type.shape<137x2>, input.from = "9:0", input.has_one_use = true}, %arg5: tensor<?x4xf32> {input.fake_symbolic_shape = #tf_type.shape<137x4>, input.from = "6:0", input.has_one_use = true}) -> (tensor<?x4xf32>, tensor<?x4xf32>, tensor<?x4xf32>) attributes {BatchComputeFusion, _nano_compiler_group_idx = 0 : i64, _nano_compiler_op_idx = "10", _nano_compiler_v2, batch_compute_pattern = "FuseGatherV2OpPattern", llvm.emit_c_interface, tf_entry} {
  %cst = arith.constant dense<0> : tensor<i32>
  %c0_i32 = arith.constant 0 : i32
  %c0 = arith.constant 0 : index
  %dim = tensor.dim %arg0, %c0 : tensor<?x2xi32>
  %0 = tensor.empty(%dim) : tensor<?xi32>
  %1 = linalg.fill ins(%c0_i32 : i32) outs(%0 : tensor<?xi32>) -> tensor<?xi32>
  %2 = linalg.generic {indexing_maps = [affine_map<(d0, d1) -> (d0, d1)>, affine_map<(d0, d1) -> (d0)>], iterator_types = ["parallel", "reduction"]} ins(%arg0 : tensor<?x2xi32>) outs(%1 : tensor<?xi32>) {
  ^bb0(%in: i32, %out: i32):
    %from_elements = tensor.from_elements %out : tensor<i32>
    %from_elements_12 = tensor.from_elements %in : tensor<i32>
    %extracted = tensor.extract %from_elements[] : tensor<i32>
    %extracted_13 = tensor.extract %from_elements_12[] : tensor<i32>
    %18 = arith.addi %extracted, %extracted_13 : i32
    %from_elements_14 = tensor.from_elements %18 : tensor<i32>
    %extracted_15 = tensor.extract %from_elements_14[] : tensor<i32>
    linalg.yield %extracted_15 : i32
  } -> tensor<?xi32>
  %c0_0 = arith.constant 0 : index
  %dim_1 = tensor.dim %2, %c0_0 : tensor<?xi32>
  %3 = tensor.empty() : tensor<4xf32>
  %4 = tensor.empty(%dim_1) : tensor<?x4xf32>
  %5 = linalg.generic {indexing_maps = [affine_map<(d0, d1) -> (d0)>, affine_map<(d0, d1) -> (d1)>, affine_map<(d0, d1) -> (d0, d1)>], iterator_types = ["parallel", "parallel"]} ins(%2, %3 : tensor<?xi32>, tensor<4xf32>) outs(%4 : tensor<?x4xf32>) {
  ^bb0(%in: i32, %in_12: f32, %out: f32):
    %18 = arith.index_cast %in : i32 to index
    %19 = linalg.index 1 : index
    %extracted = tensor.extract %arg1[%18, %19] : tensor<?x4xf32>
    linalg.yield %extracted : f32
  } -> tensor<?x4xf32>
  %c0_i32_2 = arith.constant 0 : i32
  %c0_3 = arith.constant 0 : index
  %dim_4 = tensor.dim %arg2, %c0_3 : tensor<?x2xi32>
  %6 = tensor.empty(%dim_4) : tensor<?xi32>
  %7 = linalg.fill ins(%c0_i32_2 : i32) outs(%6 : tensor<?xi32>) -> tensor<?xi32>
  %8 = linalg.generic {indexing_maps = [affine_map<(d0, d1) -> (d0, d1)>, affine_map<(d0, d1) -> (d0)>], iterator_types = ["parallel", "reduction"]} ins(%arg2 : tensor<?x2xi32>) outs(%7 : tensor<?xi32>) {
  ^bb0(%in: i32, %out: i32):
    %from_elements = tensor.from_elements %out : tensor<i32>
    %from_elements_12 = tensor.from_elements %in : tensor<i32>
    %extracted = tensor.extract %from_elements[] : tensor<i32>
    %extracted_13 = tensor.extract %from_elements_12[] : tensor<i32>
    %18 = arith.addi %extracted, %extracted_13 : i32
    %from_elements_14 = tensor.from_elements %18 : tensor<i32>
    %extracted_15 = tensor.extract %from_elements_14[] : tensor<i32>
    linalg.yield %extracted_15 : i32
  } -> tensor<?xi32>
  %c0_5 = arith.constant 0 : index
  %dim_6 = tensor.dim %8, %c0_5 : tensor<?xi32>
  %9 = tensor.empty() : tensor<4xf32>
  %10 = tensor.empty(%dim_6) : tensor<?x4xf32>
  %11 = linalg.generic {indexing_maps = [affine_map<(d0, d1) -> (d0)>, affine_map<(d0, d1) -> (d1)>, affine_map<(d0, d1) -> (d0, d1)>], iterator_types = ["parallel", "parallel"]} ins(%8, %9 : tensor<?xi32>, tensor<4xf32>) outs(%10 : tensor<?x4xf32>) {
  ^bb0(%in: i32, %in_12: f32, %out: f32):
    %18 = arith.index_cast %in : i32 to index
    %19 = linalg.index 1 : index
    %extracted = tensor.extract %arg3[%18, %19] : tensor<?x4xf32>
    linalg.yield %extracted : f32
  } -> tensor<?x4xf32>
  %c0_i32_7 = arith.constant 0 : i32
  %c0_8 = arith.constant 0 : index
  %dim_9 = tensor.dim %arg4, %c0_8 : tensor<?x2xi32>
  %12 = tensor.empty(%dim_9) : tensor<?xi32>
  %13 = linalg.fill ins(%c0_i32_7 : i32) outs(%12 : tensor<?xi32>) -> tensor<?xi32>
  %14 = linalg.generic {indexing_maps = [affine_map<(d0, d1) -> (d0, d1)>, affine_map<(d0, d1) -> (d0)>], iterator_types = ["parallel", "reduction"]} ins(%arg4 : tensor<?x2xi32>) outs(%13 : tensor<?xi32>) {
  ^bb0(%in: i32, %out: i32):
    %from_elements = tensor.from_elements %out : tensor<i32>
    %from_elements_12 = tensor.from_elements %in : tensor<i32>
    %extracted = tensor.extract %from_elements[] : tensor<i32>
    %extracted_13 = tensor.extract %from_elements_12[] : tensor<i32>
    %18 = arith.addi %extracted, %extracted_13 : i32
    %from_elements_14 = tensor.from_elements %18 : tensor<i32>
    %extracted_15 = tensor.extract %from_elements_14[] : tensor<i32>
    linalg.yield %extracted_15 : i32
  } -> tensor<?xi32>
  %c0_10 = arith.constant 0 : index
  %dim_11 = tensor.dim %14, %c0_10 : tensor<?xi32>
  %15 = tensor.empty() : tensor<4xf32>
  %16 = tensor.empty(%dim_11) : tensor<?x4xf32>
  %17 = linalg.generic {indexing_maps = [affine_map<(d0, d1) -> (d0)>, affine_map<(d0, d1) -> (d1)>, affine_map<(d0, d1) -> (d0, d1)>], iterator_types = ["parallel", "parallel"]} ins(%14, %15 : tensor<?xi32>, tensor<4xf32>) outs(%16 : tensor<?x4xf32>) {
  ^bb0(%in: i32, %in_12: f32, %out: f32):
    %18 = arith.index_cast %in : i32 to index
    %19 = linalg.index 1 : index
    %extracted = tensor.extract %arg5[%18, %19] : tensor<?x4xf32>
    linalg.yield %extracted : f32
  } -> tensor<?x4xf32>
  return %5, %11, %17 : tensor<?x4xf32>, tensor<?x4xf32>, tensor<?x4xf32>
}

// -----// IR Dump After HloLegalizeShapeOpsToStandardPass (hlo-legalize-shapeops-to-standard) //----- //
func.func @cuda_kernel_0(%arg0: tensor<?x2xi32> {input.fake_symbolic_shape = #tf_type.shape<137x2>, input.from = "7:0", input.has_one_use = true}, %arg1: tensor<?x4xf32> {input.fake_symbolic_shape = #tf_type.shape<137x4>, input.from = "4:0", input.has_one_use = true}, %arg2: tensor<?x2xi32> {input.fake_symbolic_shape = #tf_type.shape<137x2>, input.from = "8:0", input.has_one_use = true}, %arg3: tensor<?x4xf32> {input.fake_symbolic_shape = #tf_type.shape<137x4>, input.from = "5:0", input.has_one_use = true}, %arg4: tensor<?x2xi32> {input.fake_symbolic_shape = #tf_type.shape<137x2>, input.from = "9:0", input.has_one_use = true}, %arg5: tensor<?x4xf32> {input.fake_symbolic_shape = #tf_type.shape<137x4>, input.from = "6:0", input.has_one_use = true}) -> (tensor<?x4xf32>, tensor<?x4xf32>, tensor<?x4xf32>) attributes {BatchComputeFusion, _nano_compiler_group_idx = 0 : i64, _nano_compiler_op_idx = "10", _nano_compiler_v2, batch_compute_pattern = "FuseGatherV2OpPattern", llvm.emit_c_interface, tf_entry} {
  %cst = arith.constant dense<0> : tensor<i32>
  %c0_i32 = arith.constant 0 : i32
  %c0 = arith.constant 0 : index
  %dim = tensor.dim %arg0, %c0 : tensor<?x2xi32>
  %0 = tensor.empty(%dim) : tensor<?xi32>
  %1 = linalg.fill ins(%c0_i32 : i32) outs(%0 : tensor<?xi32>) -> tensor<?xi32>
  %2 = linalg.generic {indexing_maps = [affine_map<(d0, d1) -> (d0, d1)>, affine_map<(d0, d1) -> (d0)>], iterator_types = ["parallel", "reduction"]} ins(%arg0 : tensor<?x2xi32>) outs(%1 : tensor<?xi32>) {
  ^bb0(%in: i32, %out: i32):
    %from_elements = tensor.from_elements %out : tensor<i32>
    %from_elements_12 = tensor.from_elements %in : tensor<i32>
    %extracted = tensor.extract %from_elements[] : tensor<i32>
    %extracted_13 = tensor.extract %from_elements_12[] : tensor<i32>
    %18 = arith.addi %extracted, %extracted_13 : i32
    %from_elements_14 = tensor.from_elements %18 : tensor<i32>
    %extracted_15 = tensor.extract %from_elements_14[] : tensor<i32>
    linalg.yield %extracted_15 : i32
  } -> tensor<?xi32>
  %c0_0 = arith.constant 0 : index
  %dim_1 = tensor.dim %2, %c0_0 : tensor<?xi32>
  %3 = tensor.empty() : tensor<4xf32>
  %4 = tensor.empty(%dim_1) : tensor<?x4xf32>
  %5 = linalg.generic {indexing_maps = [affine_map<(d0, d1) -> (d0)>, affine_map<(d0, d1) -> (d1)>, affine_map<(d0, d1) -> (d0, d1)>], iterator_types = ["parallel", "parallel"]} ins(%2, %3 : tensor<?xi32>, tensor<4xf32>) outs(%4 : tensor<?x4xf32>) {
  ^bb0(%in: i32, %in_12: f32, %out: f32):
    %18 = arith.index_cast %in : i32 to index
    %19 = linalg.index 1 : index
    %extracted = tensor.extract %arg1[%18, %19] : tensor<?x4xf32>
    linalg.yield %extracted : f32
  } -> tensor<?x4xf32>
  %c0_i32_2 = arith.constant 0 : i32
  %c0_3 = arith.constant 0 : index
  %dim_4 = tensor.dim %arg2, %c0_3 : tensor<?x2xi32>
  %6 = tensor.empty(%dim_4) : tensor<?xi32>
  %7 = linalg.fill ins(%c0_i32_2 : i32) outs(%6 : tensor<?xi32>) -> tensor<?xi32>
  %8 = linalg.generic {indexing_maps = [affine_map<(d0, d1) -> (d0, d1)>, affine_map<(d0, d1) -> (d0)>], iterator_types = ["parallel", "reduction"]} ins(%arg2 : tensor<?x2xi32>) outs(%7 : tensor<?xi32>) {
  ^bb0(%in: i32, %out: i32):
    %from_elements = tensor.from_elements %out : tensor<i32>
    %from_elements_12 = tensor.from_elements %in : tensor<i32>
    %extracted = tensor.extract %from_elements[] : tensor<i32>
    %extracted_13 = tensor.extract %from_elements_12[] : tensor<i32>
    %18 = arith.addi %extracted, %extracted_13 : i32
    %from_elements_14 = tensor.from_elements %18 : tensor<i32>
    %extracted_15 = tensor.extract %from_elements_14[] : tensor<i32>
    linalg.yield %extracted_15 : i32
  } -> tensor<?xi32>
  %c0_5 = arith.constant 0 : index
  %dim_6 = tensor.dim %8, %c0_5 : tensor<?xi32>
  %9 = tensor.empty() : tensor<4xf32>
  %10 = tensor.empty(%dim_6) : tensor<?x4xf32>
  %11 = linalg.generic {indexing_maps = [affine_map<(d0, d1) -> (d0)>, affine_map<(d0, d1) -> (d1)>, affine_map<(d0, d1) -> (d0, d1)>], iterator_types = ["parallel", "parallel"]} ins(%8, %9 : tensor<?xi32>, tensor<4xf32>) outs(%10 : tensor<?x4xf32>) {
  ^bb0(%in: i32, %in_12: f32, %out: f32):
    %18 = arith.index_cast %in : i32 to index
    %19 = linalg.index 1 : index
    %extracted = tensor.extract %arg3[%18, %19] : tensor<?x4xf32>
    linalg.yield %extracted : f32
  } -> tensor<?x4xf32>
  %c0_i32_7 = arith.constant 0 : i32
  %c0_8 = arith.constant 0 : index
  %dim_9 = tensor.dim %arg4, %c0_8 : tensor<?x2xi32>
  %12 = tensor.empty(%dim_9) : tensor<?xi32>
  %13 = linalg.fill ins(%c0_i32_7 : i32) outs(%12 : tensor<?xi32>) -> tensor<?xi32>
  %14 = linalg.generic {indexing_maps = [affine_map<(d0, d1) -> (d0, d1)>, affine_map<(d0, d1) -> (d0)>], iterator_types = ["parallel", "reduction"]} ins(%arg4 : tensor<?x2xi32>) outs(%13 : tensor<?xi32>) {
  ^bb0(%in: i32, %out: i32):
    %from_elements = tensor.from_elements %out : tensor<i32>
    %from_elements_12 = tensor.from_elements %in : tensor<i32>
    %extracted = tensor.extract %from_elements[] : tensor<i32>
    %extracted_13 = tensor.extract %from_elements_12[] : tensor<i32>
    %18 = arith.addi %extracted, %extracted_13 : i32
    %from_elements_14 = tensor.from_elements %18 : tensor<i32>
    %extracted_15 = tensor.extract %from_elements_14[] : tensor<i32>
    linalg.yield %extracted_15 : i32
  } -> tensor<?xi32>
  %c0_10 = arith.constant 0 : index
  %dim_11 = tensor.dim %14, %c0_10 : tensor<?xi32>
  %15 = tensor.empty() : tensor<4xf32>
  %16 = tensor.empty(%dim_11) : tensor<?x4xf32>
  %17 = linalg.generic {indexing_maps = [affine_map<(d0, d1) -> (d0)>, affine_map<(d0, d1) -> (d1)>, affine_map<(d0, d1) -> (d0, d1)>], iterator_types = ["parallel", "parallel"]} ins(%14, %15 : tensor<?xi32>, tensor<4xf32>) outs(%16 : tensor<?x4xf32>) {
  ^bb0(%in: i32, %in_12: f32, %out: f32):
    %18 = arith.index_cast %in : i32 to index
    %19 = linalg.index 1 : index
    %extracted = tensor.extract %arg5[%18, %19] : tensor<?x4xf32>
    linalg.yield %extracted : f32
  } -> tensor<?x4xf32>
  return %5, %11, %17 : tensor<?x4xf32>, tensor<?x4xf32>, tensor<?x4xf32>
}

// -----// IR Dump Before ConvertToSignlessPass (convert-to-signless) //----- //
#map = affine_map<(d0, d1) -> (d0, d1)>
#map1 = affine_map<(d0, d1) -> (d0)>
#map2 = affine_map<(d0, d1) -> (d1)>
module {
  func.func @cuda_kernel_0(%arg0: tensor<?x2xi32> {input.fake_symbolic_shape = #tf_type.shape<137x2>, input.from = "7:0", input.has_one_use = true}, %arg1: tensor<?x4xf32> {input.fake_symbolic_shape = #tf_type.shape<137x4>, input.from = "4:0", input.has_one_use = true}, %arg2: tensor<?x2xi32> {input.fake_symbolic_shape = #tf_type.shape<137x2>, input.from = "8:0", input.has_one_use = true}, %arg3: tensor<?x4xf32> {input.fake_symbolic_shape = #tf_type.shape<137x4>, input.from = "5:0", input.has_one_use = true}, %arg4: tensor<?x2xi32> {input.fake_symbolic_shape = #tf_type.shape<137x2>, input.from = "9:0", input.has_one_use = true}, %arg5: tensor<?x4xf32> {input.fake_symbolic_shape = #tf_type.shape<137x4>, input.from = "6:0", input.has_one_use = true}) -> (tensor<?x4xf32>, tensor<?x4xf32>, tensor<?x4xf32>) attributes {BatchComputeFusion, _nano_compiler_group_idx = 0 : i64, _nano_compiler_op_idx = "10", _nano_compiler_v2, batch_compute_pattern = "FuseGatherV2OpPattern", llvm.emit_c_interface, tf_entry} {
    %cst = arith.constant dense<0> : tensor<i32>
    %c0_i32 = arith.constant 0 : i32
    %c0 = arith.constant 0 : index
    %dim = tensor.dim %arg0, %c0 : tensor<?x2xi32>
    %0 = tensor.empty(%dim) : tensor<?xi32>
    %1 = linalg.fill ins(%c0_i32 : i32) outs(%0 : tensor<?xi32>) -> tensor<?xi32>
    %2 = linalg.generic {indexing_maps = [#map, #map1], iterator_types = ["parallel", "reduction"]} ins(%arg0 : tensor<?x2xi32>) outs(%1 : tensor<?xi32>) {
    ^bb0(%in: i32, %out: i32):
      %from_elements = tensor.from_elements %out : tensor<i32>
      %from_elements_12 = tensor.from_elements %in : tensor<i32>
      %extracted = tensor.extract %from_elements[] : tensor<i32>
      %extracted_13 = tensor.extract %from_elements_12[] : tensor<i32>
      %18 = arith.addi %extracted, %extracted_13 : i32
      %from_elements_14 = tensor.from_elements %18 : tensor<i32>
      %extracted_15 = tensor.extract %from_elements_14[] : tensor<i32>
      linalg.yield %extracted_15 : i32
    } -> tensor<?xi32>
    %c0_0 = arith.constant 0 : index
    %dim_1 = tensor.dim %2, %c0_0 : tensor<?xi32>
    %3 = tensor.empty() : tensor<4xf32>
    %4 = tensor.empty(%dim_1) : tensor<?x4xf32>
    %5 = linalg.generic {indexing_maps = [#map1, #map2, #map], iterator_types = ["parallel", "parallel"]} ins(%2, %3 : tensor<?xi32>, tensor<4xf32>) outs(%4 : tensor<?x4xf32>) {
    ^bb0(%in: i32, %in_12: f32, %out: f32):
      %18 = arith.index_cast %in : i32 to index
      %19 = linalg.index 1 : index
      %extracted = tensor.extract %arg1[%18, %19] : tensor<?x4xf32>
      linalg.yield %extracted : f32
    } -> tensor<?x4xf32>
    %c0_i32_2 = arith.constant 0 : i32
    %c0_3 = arith.constant 0 : index
    %dim_4 = tensor.dim %arg2, %c0_3 : tensor<?x2xi32>
    %6 = tensor.empty(%dim_4) : tensor<?xi32>
    %7 = linalg.fill ins(%c0_i32_2 : i32) outs(%6 : tensor<?xi32>) -> tensor<?xi32>
    %8 = linalg.generic {indexing_maps = [#map, #map1], iterator_types = ["parallel", "reduction"]} ins(%arg2 : tensor<?x2xi32>) outs(%7 : tensor<?xi32>) {
    ^bb0(%in: i32, %out: i32):
      %from_elements = tensor.from_elements %out : tensor<i32>
      %from_elements_12 = tensor.from_elements %in : tensor<i32>
      %extracted = tensor.extract %from_elements[] : tensor<i32>
      %extracted_13 = tensor.extract %from_elements_12[] : tensor<i32>
      %18 = arith.addi %extracted, %extracted_13 : i32
      %from_elements_14 = tensor.from_elements %18 : tensor<i32>
      %extracted_15 = tensor.extract %from_elements_14[] : tensor<i32>
      linalg.yield %extracted_15 : i32
    } -> tensor<?xi32>
    %c0_5 = arith.constant 0 : index
    %dim_6 = tensor.dim %8, %c0_5 : tensor<?xi32>
    %9 = tensor.empty() : tensor<4xf32>
    %10 = tensor.empty(%dim_6) : tensor<?x4xf32>
    %11 = linalg.generic {indexing_maps = [#map1, #map2, #map], iterator_types = ["parallel", "parallel"]} ins(%8, %9 : tensor<?xi32>, tensor<4xf32>) outs(%10 : tensor<?x4xf32>) {
    ^bb0(%in: i32, %in_12: f32, %out: f32):
      %18 = arith.index_cast %in : i32 to index
      %19 = linalg.index 1 : index
      %extracted = tensor.extract %arg3[%18, %19] : tensor<?x4xf32>
      linalg.yield %extracted : f32
    } -> tensor<?x4xf32>
    %c0_i32_7 = arith.constant 0 : i32
    %c0_8 = arith.constant 0 : index
    %dim_9 = tensor.dim %arg4, %c0_8 : tensor<?x2xi32>
    %12 = tensor.empty(%dim_9) : tensor<?xi32>
    %13 = linalg.fill ins(%c0_i32_7 : i32) outs(%12 : tensor<?xi32>) -> tensor<?xi32>
    %14 = linalg.generic {indexing_maps = [#map, #map1], iterator_types = ["parallel", "reduction"]} ins(%arg4 : tensor<?x2xi32>) outs(%13 : tensor<?xi32>) {
    ^bb0(%in: i32, %out: i32):
      %from_elements = tensor.from_elements %out : tensor<i32>
      %from_elements_12 = tensor.from_elements %in : tensor<i32>
      %extracted = tensor.extract %from_elements[] : tensor<i32>
      %extracted_13 = tensor.extract %from_elements_12[] : tensor<i32>
      %18 = arith.addi %extracted, %extracted_13 : i32
      %from_elements_14 = tensor.from_elements %18 : tensor<i32>
      %extracted_15 = tensor.extract %from_elements_14[] : tensor<i32>
      linalg.yield %extracted_15 : i32
    } -> tensor<?xi32>
    %c0_10 = arith.constant 0 : index
    %dim_11 = tensor.dim %14, %c0_10 : tensor<?xi32>
    %15 = tensor.empty() : tensor<4xf32>
    %16 = tensor.empty(%dim_11) : tensor<?x4xf32>
    %17 = linalg.generic {indexing_maps = [#map1, #map2, #map], iterator_types = ["parallel", "parallel"]} ins(%14, %15 : tensor<?xi32>, tensor<4xf32>) outs(%16 : tensor<?x4xf32>) {
    ^bb0(%in: i32, %in_12: f32, %out: f32):
      %18 = arith.index_cast %in : i32 to index
      %19 = linalg.index 1 : index
      %extracted = tensor.extract %arg5[%18, %19] : tensor<?x4xf32>
      linalg.yield %extracted : f32
    } -> tensor<?x4xf32>
    return %5, %11, %17 : tensor<?x4xf32>, tensor<?x4xf32>, tensor<?x4xf32>
  }
}


// -----// IR Dump After ConvertToSignlessPass (convert-to-signless) //----- //
#map = affine_map<(d0, d1) -> (d0, d1)>
#map1 = affine_map<(d0, d1) -> (d0)>
#map2 = affine_map<(d0, d1) -> (d1)>
module {
  func.func @cuda_kernel_0(%arg0: tensor<?x2xi32> {input.fake_symbolic_shape = #tf_type.shape<137x2>, input.from = "7:0", input.has_one_use = true}, %arg1: tensor<?x4xf32> {input.fake_symbolic_shape = #tf_type.shape<137x4>, input.from = "4:0", input.has_one_use = true}, %arg2: tensor<?x2xi32> {input.fake_symbolic_shape = #tf_type.shape<137x2>, input.from = "8:0", input.has_one_use = true}, %arg3: tensor<?x4xf32> {input.fake_symbolic_shape = #tf_type.shape<137x4>, input.from = "5:0", input.has_one_use = true}, %arg4: tensor<?x2xi32> {input.fake_symbolic_shape = #tf_type.shape<137x2>, input.from = "9:0", input.has_one_use = true}, %arg5: tensor<?x4xf32> {input.fake_symbolic_shape = #tf_type.shape<137x4>, input.from = "6:0", input.has_one_use = true}) -> (tensor<?x4xf32>, tensor<?x4xf32>, tensor<?x4xf32>) attributes {BatchComputeFusion, _nano_compiler_group_idx = 0 : i64, _nano_compiler_op_idx = "10", _nano_compiler_v2, batch_compute_pattern = "FuseGatherV2OpPattern", llvm.emit_c_interface, tf_entry} {
    %cst = arith.constant dense<0> : tensor<i32>
    %c0_i32 = arith.constant 0 : i32
    %c0 = arith.constant 0 : index
    %dim = tensor.dim %arg0, %c0 : tensor<?x2xi32>
    %0 = tensor.empty(%dim) : tensor<?xi32>
    %1 = linalg.fill ins(%c0_i32 : i32) outs(%0 : tensor<?xi32>) -> tensor<?xi32>
    %2 = linalg.generic {indexing_maps = [#map, #map1], iterator_types = ["parallel", "reduction"]} ins(%arg0 : tensor<?x2xi32>) outs(%1 : tensor<?xi32>) {
    ^bb0(%in: i32, %out: i32):
      %from_elements = tensor.from_elements %out : tensor<i32>
      %from_elements_12 = tensor.from_elements %in : tensor<i32>
      %extracted = tensor.extract %from_elements[] : tensor<i32>
      %extracted_13 = tensor.extract %from_elements_12[] : tensor<i32>
      %18 = arith.addi %extracted, %extracted_13 : i32
      %from_elements_14 = tensor.from_elements %18 : tensor<i32>
      %extracted_15 = tensor.extract %from_elements_14[] : tensor<i32>
      linalg.yield %extracted_15 : i32
    } -> tensor<?xi32>
    %c0_0 = arith.constant 0 : index
    %dim_1 = tensor.dim %2, %c0_0 : tensor<?xi32>
    %3 = tensor.empty() : tensor<4xf32>
    %4 = tensor.empty(%dim_1) : tensor<?x4xf32>
    %5 = linalg.generic {indexing_maps = [#map1, #map2, #map], iterator_types = ["parallel", "parallel"]} ins(%2, %3 : tensor<?xi32>, tensor<4xf32>) outs(%4 : tensor<?x4xf32>) {
    ^bb0(%in: i32, %in_12: f32, %out: f32):
      %18 = arith.index_cast %in : i32 to index
      %19 = linalg.index 1 : index
      %extracted = tensor.extract %arg1[%18, %19] : tensor<?x4xf32>
      linalg.yield %extracted : f32
    } -> tensor<?x4xf32>
    %c0_i32_2 = arith.constant 0 : i32
    %c0_3 = arith.constant 0 : index
    %dim_4 = tensor.dim %arg2, %c0_3 : tensor<?x2xi32>
    %6 = tensor.empty(%dim_4) : tensor<?xi32>
    %7 = linalg.fill ins(%c0_i32_2 : i32) outs(%6 : tensor<?xi32>) -> tensor<?xi32>
    %8 = linalg.generic {indexing_maps = [#map, #map1], iterator_types = ["parallel", "reduction"]} ins(%arg2 : tensor<?x2xi32>) outs(%7 : tensor<?xi32>) {
    ^bb0(%in: i32, %out: i32):
      %from_elements = tensor.from_elements %out : tensor<i32>
      %from_elements_12 = tensor.from_elements %in : tensor<i32>
      %extracted = tensor.extract %from_elements[] : tensor<i32>
      %extracted_13 = tensor.extract %from_elements_12[] : tensor<i32>
      %18 = arith.addi %extracted, %extracted_13 : i32
      %from_elements_14 = tensor.from_elements %18 : tensor<i32>
      %extracted_15 = tensor.extract %from_elements_14[] : tensor<i32>
      linalg.yield %extracted_15 : i32
    } -> tensor<?xi32>
    %c0_5 = arith.constant 0 : index
    %dim_6 = tensor.dim %8, %c0_5 : tensor<?xi32>
    %9 = tensor.empty() : tensor<4xf32>
    %10 = tensor.empty(%dim_6) : tensor<?x4xf32>
    %11 = linalg.generic {indexing_maps = [#map1, #map2, #map], iterator_types = ["parallel", "parallel"]} ins(%8, %9 : tensor<?xi32>, tensor<4xf32>) outs(%10 : tensor<?x4xf32>) {
    ^bb0(%in: i32, %in_12: f32, %out: f32):
      %18 = arith.index_cast %in : i32 to index
      %19 = linalg.index 1 : index
      %extracted = tensor.extract %arg3[%18, %19] : tensor<?x4xf32>
      linalg.yield %extracted : f32
    } -> tensor<?x4xf32>
    %c0_i32_7 = arith.constant 0 : i32
    %c0_8 = arith.constant 0 : index
    %dim_9 = tensor.dim %arg4, %c0_8 : tensor<?x2xi32>
    %12 = tensor.empty(%dim_9) : tensor<?xi32>
    %13 = linalg.fill ins(%c0_i32_7 : i32) outs(%12 : tensor<?xi32>) -> tensor<?xi32>
    %14 = linalg.generic {indexing_maps = [#map, #map1], iterator_types = ["parallel", "reduction"]} ins(%arg4 : tensor<?x2xi32>) outs(%13 : tensor<?xi32>) {
    ^bb0(%in: i32, %out: i32):
      %from_elements = tensor.from_elements %out : tensor<i32>
      %from_elements_12 = tensor.from_elements %in : tensor<i32>
      %extracted = tensor.extract %from_elements[] : tensor<i32>
      %extracted_13 = tensor.extract %from_elements_12[] : tensor<i32>
      %18 = arith.addi %extracted, %extracted_13 : i32
      %from_elements_14 = tensor.from_elements %18 : tensor<i32>
      %extracted_15 = tensor.extract %from_elements_14[] : tensor<i32>
      linalg.yield %extracted_15 : i32
    } -> tensor<?xi32>
    %c0_10 = arith.constant 0 : index
    %dim_11 = tensor.dim %14, %c0_10 : tensor<?xi32>
    %15 = tensor.empty() : tensor<4xf32>
    %16 = tensor.empty(%dim_11) : tensor<?x4xf32>
    %17 = linalg.generic {indexing_maps = [#map1, #map2, #map], iterator_types = ["parallel", "parallel"]} ins(%14, %15 : tensor<?xi32>, tensor<4xf32>) outs(%16 : tensor<?x4xf32>) {
    ^bb0(%in: i32, %in_12: f32, %out: f32):
      %18 = arith.index_cast %in : i32 to index
      %19 = linalg.index 1 : index
      %extracted = tensor.extract %arg5[%18, %19] : tensor<?x4xf32>
      linalg.yield %extracted : f32
    } -> tensor<?x4xf32>
    return %5, %11, %17 : tensor<?x4xf32>, tensor<?x4xf32>, tensor<?x4xf32>
  }
}


// -----// IR Dump Before Canonicalizer (canonicalize) //----- //
#map = affine_map<(d0, d1) -> (d0, d1)>
#map1 = affine_map<(d0, d1) -> (d0)>
#map2 = affine_map<(d0, d1) -> (d1)>
module {
  func.func @cuda_kernel_0(%arg0: tensor<?x2xi32> {input.fake_symbolic_shape = #tf_type.shape<137x2>, input.from = "7:0", input.has_one_use = true}, %arg1: tensor<?x4xf32> {input.fake_symbolic_shape = #tf_type.shape<137x4>, input.from = "4:0", input.has_one_use = true}, %arg2: tensor<?x2xi32> {input.fake_symbolic_shape = #tf_type.shape<137x2>, input.from = "8:0", input.has_one_use = true}, %arg3: tensor<?x4xf32> {input.fake_symbolic_shape = #tf_type.shape<137x4>, input.from = "5:0", input.has_one_use = true}, %arg4: tensor<?x2xi32> {input.fake_symbolic_shape = #tf_type.shape<137x2>, input.from = "9:0", input.has_one_use = true}, %arg5: tensor<?x4xf32> {input.fake_symbolic_shape = #tf_type.shape<137x4>, input.from = "6:0", input.has_one_use = true}) -> (tensor<?x4xf32>, tensor<?x4xf32>, tensor<?x4xf32>) attributes {BatchComputeFusion, _nano_compiler_group_idx = 0 : i64, _nano_compiler_op_idx = "10", _nano_compiler_v2, batch_compute_pattern = "FuseGatherV2OpPattern", llvm.emit_c_interface, tf_entry} {
    %cst = arith.constant dense<0> : tensor<i32>
    %c0_i32 = arith.constant 0 : i32
    %c0 = arith.constant 0 : index
    %dim = tensor.dim %arg0, %c0 : tensor<?x2xi32>
    %0 = tensor.empty(%dim) : tensor<?xi32>
    %1 = linalg.fill ins(%c0_i32 : i32) outs(%0 : tensor<?xi32>) -> tensor<?xi32>
    %2 = linalg.generic {indexing_maps = [#map, #map1], iterator_types = ["parallel", "reduction"]} ins(%arg0 : tensor<?x2xi32>) outs(%1 : tensor<?xi32>) {
    ^bb0(%in: i32, %out: i32):
      %from_elements = tensor.from_elements %out : tensor<i32>
      %from_elements_12 = tensor.from_elements %in : tensor<i32>
      %extracted = tensor.extract %from_elements[] : tensor<i32>
      %extracted_13 = tensor.extract %from_elements_12[] : tensor<i32>
      %18 = arith.addi %extracted, %extracted_13 : i32
      %from_elements_14 = tensor.from_elements %18 : tensor<i32>
      %extracted_15 = tensor.extract %from_elements_14[] : tensor<i32>
      linalg.yield %extracted_15 : i32
    } -> tensor<?xi32>
    %c0_0 = arith.constant 0 : index
    %dim_1 = tensor.dim %2, %c0_0 : tensor<?xi32>
    %3 = tensor.empty() : tensor<4xf32>
    %4 = tensor.empty(%dim_1) : tensor<?x4xf32>
    %5 = linalg.generic {indexing_maps = [#map1, #map2, #map], iterator_types = ["parallel", "parallel"]} ins(%2, %3 : tensor<?xi32>, tensor<4xf32>) outs(%4 : tensor<?x4xf32>) {
    ^bb0(%in: i32, %in_12: f32, %out: f32):
      %18 = arith.index_cast %in : i32 to index
      %19 = linalg.index 1 : index
…
    scf.parallel (%arg7) = (%c0) to (%8) step (%c1) {
      %17 = arith.addi %arg7, %arg6 : index
      memref.store %c0_i32, %alloc[%17] : memref<?xi32>
      scf.yield
    }
    %9 = affine.min affine_map<(d0)[s0] -> (-d0 + s0, 512)>(%arg6)[%dim]
    scf.parallel (%arg7) = (%c0) to (%9) step (%c1) {
      %17 = arith.addi %arg7, %arg6 : index
      scf.for %arg8 = %c0 to %c2 step %c1 {
        %18 = memref.load %arg0[%17, %arg8] : memref<?x2xi32>
        %19 = memref.load %alloc[%17] : memref<?xi32>
        %20 = arith.addi %19, %18 : i32
        memref.store %20, %alloc[%17] : memref<?xi32>
      }
      scf.yield
    }
    %10 = affine.min affine_map<(d0)[s0] -> (-d0 + s0, 512)>(%arg6)[%0]
    scf.parallel (%arg7) = (%c0) to (%10) step (%c1) {
      %17 = arith.addi %arg7, %arg6 : index
      %18 = arith.remsi %17, %c4 : index
      %19 = arith.divsi %17, %c4 : index
      %20 = memref.load %alloc[%19] : memref<?xi32>
      %21 = arith.index_cast %20 : i32 to index
      %22 = memref.load %arg1[%21, %18] : memref<?x4xf32>
      memref.store %22, %alloc_0[%19, %18] : memref<?x4xf32>
      scf.yield
    }
    %11 = affine.min affine_map<(d0)[s0] -> (-d0 + s0, 512)>(%arg6)[%dim_1]
    scf.parallel (%arg7) = (%c0) to (%11) step (%c1) {
      %17 = arith.addi %arg7, %arg6 : index
      memref.store %c0_i32, %alloc_2[%17] : memref<?xi32>
      scf.yield
    }
    %12 = affine.min affine_map<(d0)[s0] -> (-d0 + s0, 512)>(%arg6)[%dim_1]
    scf.parallel (%arg7) = (%c0) to (%12) step (%c1) {
      %17 = arith.addi %arg7, %arg6 : index
      scf.for %arg8 = %c0 to %c2 step %c1 {
        %18 = memref.load %arg2[%17, %arg8] : memref<?x2xi32>
        %19 = memref.load %alloc_2[%17] : memref<?xi32>
        %20 = arith.addi %19, %18 : i32
        memref.store %20, %alloc_2[%17] : memref<?xi32>
      }
      scf.yield
    }
    %13 = affine.min affine_map<(d0)[s0] -> (-d0 + s0, 512)>(%arg6)[%3]
    scf.parallel (%arg7) = (%c0) to (%13) step (%c1) {
      %17 = arith.addi %arg7, %arg6 : index
      %18 = arith.remsi %17, %c4 : index
      %19 = arith.divsi %17, %c4 : index
      %20 = memref.load %alloc_2[%19] : memref<?xi32>
      %21 = arith.index_cast %20 : i32 to index
      %22 = memref.load %arg3[%21, %18] : memref<?x4xf32>
      memref.store %22, %alloc_3[%19, %18] : memref<?x4xf32>
      scf.yield
    }
    %14 = affine.min affine_map<(d0)[s0] -> (-d0 + s0, 512)>(%arg6)[%dim_4]
    scf.parallel (%arg7) = (%c0) to (%14) step (%c1) {
      %17 = arith.addi %arg7, %arg6 : index
      memref.store %c0_i32, %alloc_5[%17] : memref<?xi32>
      scf.yield
    }
    %15 = affine.min affine_map<(d0)[s0] -> (-d0 + s0, 512)>(%arg6)[%dim_4]
    scf.parallel (%arg7) = (%c0) to (%15) step (%c1) {
      %17 = arith.addi %arg7, %arg6 : index
      scf.for %arg8 = %c0 to %c2 step %c1 {
        %18 = memref.load %arg4[%17, %arg8] : memref<?x2xi32>
        %19 = memref.load %alloc_5[%17] : memref<?xi32>
        %20 = arith.addi %19, %18 : i32
        memref.store %20, %alloc_5[%17] : memref<?xi32>
      }
      scf.yield
    }
    %16 = affine.min affine_map<(d0)[s0] -> (-d0 + s0, 512)>(%arg6)[%6]
    scf.parallel (%arg7) = (%c0) to (%16) step (%c1) {
      %17 = arith.addi %arg7, %arg6 : index
      %18 = arith.remsi %17, %c4 : index
      %19 = arith.divsi %17, %c4 : index
      %20 = memref.load %alloc_5[%19] : memref<?xi32>
      %21 = arith.index_cast %20 : i32 to index
      %22 = memref.load %arg5[%21, %18] : memref<?x4xf32>
      memref.store %22, %alloc_6[%19, %18] : memref<?x4xf32>
      scf.yield
    }
    scf.yield
  }
  return %alloc_0, %alloc_3, %alloc_6 : memref<?x4xf32>, memref<?x4xf32>, memref<?x4xf32>
}

// -----// IR Dump Before CSE (cse) //----- //
func.func @cuda_kernel_0(%arg0: memref<?x2xi32> {input.fake_symbolic_shape = #tf_type.shape<137x2>, input.from = "7:0", input.has_one_use = true}, %arg1: memref<?x4xf32> {input.fake_symbolic_shape = #tf_type.shape<137x4>, input.from = "4:0", input.has_one_use = true}, %arg2: memref<?x2xi32> {input.fake_symbolic_shape = #tf_type.shape<137x2>, input.from = "8:0", input.has_one_use = true}, %arg3: memref<?x4xf32> {input.fake_symbolic_shape = #tf_type.shape<137x4>, input.from = "5:0", input.has_one_use = true}, %arg4: memref<?x2xi32> {input.fake_symbolic_shape = #tf_type.shape<137x2>, input.from = "9:0", input.has_one_use = true}, %arg5: memref<?x4xf32> {input.fake_symbolic_shape = #tf_type.shape<137x4>, input.from = "6:0", input.has_one_use = true}) -> (memref<?x4xf32>, memref<?x4xf32>, memref<?x4xf32>) attributes {BatchComputeFusion, _nano_compiler_group_idx = 0 : i64, _nano_compiler_op_idx = "10", _nano_compiler_v2, batch_compute_pattern = "FuseGatherV2OpPattern", llvm.emit_c_interface, tf_entry} {
  %c512 = arith.constant 512 : index
  %c0 = arith.constant 0 : index
  %c1 = arith.constant 1 : index
  %c2 = arith.constant 2 : index
  %c4 = arith.constant 4 : index
  %c0_i32 = arith.constant 0 : i32
  %dim = memref.dim %arg0, %c0 : memref<?x2xi32>
  %alloc = memref.alloc(%dim) {alignment = 128 : i64} : memref<?xi32>
  %alloc_0 = memref.alloc(%dim) {alignment = 128 : i64} : memref<?x4xf32>
  %0 = arith.muli %dim, %c4 : index
  %1 = arith.maxui %dim, %0 : index
  %dim_1 = memref.dim %arg2, %c0 : memref<?x2xi32>
  %2 = arith.maxui %1, %dim_1 : index
  %alloc_2 = memref.alloc(%dim_1) {alignment = 128 : i64} : memref<?xi32>
  %alloc_3 = memref.alloc(%dim_1) {alignment = 128 : i64} : memref<?x4xf32>
  %3 = arith.muli %dim_1, %c4 : index
  %4 = arith.maxui %2, %3 : index
  %dim_4 = memref.dim %arg4, %c0 : memref<?x2xi32>
  %5 = arith.maxui %4, %dim_4 : index
  %alloc_5 = memref.alloc(%dim_4) {alignment = 128 : i64} : memref<?xi32>
  %alloc_6 = memref.alloc(%dim_4) {alignment = 128 : i64} : memref<?x4xf32>
  %6 = arith.muli %dim_4, %c4 : index
  %7 = arith.maxui %5, %6 : index
  scf.parallel (%arg6) = (%c0) to (%7) step (%c512) {
    %8 = affine.min affine_map<(d0)[s0] -> (-d0 + s0, 512)>(%arg6)[%dim]
    scf.parallel (%arg7) = (%c0) to (%8) step (%c1) {
      %17 = arith.addi %arg7, %arg6 : index
      memref.store %c0_i32, %alloc[%17] : memref<?xi32>
      scf.yield
    }
    %9 = affine.min affine_map<(d0)[s0] -> (-d0 + s0, 512)>(%arg6)[%dim]
    scf.parallel (%arg7) = (%c0) to (%9) step (%c1) {
      %17 = arith.addi %arg7, %arg6 : index
      scf.for %arg8 = %c0 to %c2 step %c1 {
        %18 = memref.load %arg0[%17, %arg8] : memref<?x2xi32>
        %19 = memref.load %alloc[%17] : memref<?xi32>
        %20 = arith.addi %19, %18 : i32
        memref.store %20, %alloc[%17] : memref<?xi32>
      }
      scf.yield
    }
    %10 = affine.min affine_map<(d0)[s0] -> (-d0 + s0, 512)>(%arg6)[%0]
    scf.parallel (%arg7) = (%c0) to (%10) step (%c1) {
      %17 = arith.addi %arg7, %arg6 : index
      %18 = arith.remsi %17, %c4 : index
      %19 = arith.divsi %17, %c4 : index
      %20 = memref.load %alloc[%19] : memref<?xi32>
      %21 = arith.index_cast %20 : i32 to index
      %22 = memref.load %arg1[%21, %18] : memref<?x4xf32>
      memref.store %22, %alloc_0[%19, %18] : memref<?x4xf32>
      scf.yield
    }
    %11 = affine.min affine_map<(d0)[s0] -> (-d0 + s0, 512)>(%arg6)[%dim_1]
    scf.parallel (%arg7) = (%c0) to (%11) step (%c1) {
      %17 = arith.addi %arg7, %arg6 : index
      memref.store %c0_i32, %alloc_2[%17] : memref<?xi32>
      scf.yield
    }
    %12 = affine.min affine_map<(d0)[s0] -> (-d0 + s0, 512)>(%arg6)[%dim_1]
    scf.parallel (%arg7) = (%c0) to (%12) step (%c1) {
      %17 = arith.addi %arg7, %arg6 : index
      scf.for %arg8 = %c0 to %c2 step %c1 {
        %18 = memref.load %arg2[%17, %arg8] : memref<?x2xi32>
        %19 = memref.load %alloc_2[%17] : memref<?xi32>
        %20 = arith.addi %19, %18 : i32
        memref.store %20, %alloc_2[%17] : memref<?xi32>
      }
      scf.yield
    }
    %13 = affine.min affine_map<(d0)[s0] -> (-d0 + s0, 512)>(%arg6)[%3]
    scf.parallel (%arg7) = (%c0) to (%13) step (%c1) {
      %17 = arith.addi %arg7, %arg6 : index
      %18 = arith.remsi %17, %c4 : index
      %19 = arith.divsi %17, %c4 : index
      %20 = memref.load %alloc_2[%19] : memref<?xi32>
      %21 = arith.index_cast %20 : i32 to index
      %22 = memref.load %arg3[%21, %18] : memref<?x4xf32>
      memref.store %22, %alloc_3[%19, %18] : memref<?x4xf32>
      scf.yield
    }
    %14 = affine.min affine_map<(d0)[s0] -> (-d0 + s0, 512)>(%arg6)[%dim_4]
    scf.parallel (%arg7) = (%c0) to (%14) step (%c1) {
      %17 = arith.addi %arg7, %arg6 : index
      memref.store %c0_i32, %alloc_5[%17] : memref<?xi32>
      scf.yield
    }
    %15 = affine.min affine_map<(d0)[s0] -> (-d0 + s0, 512)>(%arg6)[%dim_4]
    scf.parallel (%arg7) = (%c0) to (%15) step (%c1) {
      %17 = arith.addi %arg7, %arg6 : index
      scf.for %arg8 = %c0 to %c2 step %c1 {
        %18 = memref.load %arg4[%17, %arg8] : memref<?x2xi32>
        %19 = memref.load %alloc_5[%17] : memref<?xi32>
        %20 = arith.addi %19, %18 : i32
        memref.store %20, %alloc_5[%17] : memref<?xi32>
      }
      scf.yield
    }
    %16 = affine.min affine_map<(d0)[s0] -> (-d0 + s0, 512)>(%arg6)[%6]
    scf.parallel (%arg7) = (%c0) to (%16) step (%c1) {
      %17 = arith.addi %arg7, %arg6 : index
      %18 = arith.remsi %17, %c4 : index
      %19 = arith.divsi %17, %c4 : index
      %20 = memref.load %alloc_5[%19] : memref<?xi32>
      %21 = arith.index_cast %20 : i32 to index
      %22 = memref.load %arg5[%21, %18] : memref<?x4xf32>
      memref.store %22, %alloc_6[%19, %18] : memref<?x4xf32>
      scf.yield
    }
    scf.yield
  }
  return %alloc_0, %alloc_3, %alloc_6 : memref<?x4xf32>, memref<?x4xf32>, memref<?x4xf32>
}

// -----// IR Dump After CSE (cse) //----- //
func.func @cuda_kernel_0(%arg0: memref<?x2xi32> {input.fake_symbolic_shape = #tf_type.shape<137x2>, input.from = "7:0", input.has_one_use = true}, %arg1: memref<?x4xf32> {input.fake_symbolic_shape = #tf_type.shape<137x4>, input.from = "4:0", input.has_one_use = true}, %arg2: memref<?x2xi32> {input.fake_symbolic_shape = #tf_type.shape<137x2>, input.from = "8:0", input.has_one_use = true}, %arg3: memref<?x4xf32> {input.fake_symbolic_shape = #tf_type.shape<137x4>, input.from = "5:0", input.has_one_use = true}, %arg4: memref<?x2xi32> {input.fake_symbolic_shape = #tf_type.shape<137x2>, input.from = "9:0", input.has_one_use = true}, %arg5: memref<?x4xf32> {input.fake_symbolic_shape = #tf_type.shape<137x4>, input.from = "6:0", input.has_one_use = true}) -> (memref<?x4xf32>, memref<?x4xf32>, memref<?x4xf32>) attributes {BatchComputeFusion, _nano_compiler_group_idx = 0 : i64, _nano_compiler_op_idx = "10", _nano_compiler_v2, batch_compute_pattern = "FuseGatherV2OpPattern", llvm.emit_c_interface, tf_entry} {
  %c512 = arith.constant 512 : index
  %c0 = arith.constant 0 : index
  %c1 = arith.constant 1 : index
  %c2 = arith.constant 2 : index
  %c4 = arith.constant 4 : index
  %c0_i32 = arith.constant 0 : i32
  %dim = memref.dim %arg0, %c0 : memref<?x2xi32>
  %alloc = memref.alloc(%dim) {alignment = 128 : i64} : memref<?xi32>
  %alloc_0 = memref.alloc(%dim) {alignment = 128 : i64} : memref<?x4xf32>
  %0 = arith.muli %dim, %c4 : index
  %1 = arith.maxui %dim, %0 : index
  %dim_1 = memref.dim %arg2, %c0 : memref<?x2xi32>
  %2 = arith.maxui %1, %dim_1 : index
  %alloc_2 = memref.alloc(%dim_1) {alignment = 128 : i64} : memref<?xi32>
  %alloc_3 = memref.alloc(%dim_1) {alignment = 128 : i64} : memref<?x4xf32>
  %3 = arith.muli %dim_1, %c4 : index
  %4 = arith.maxui %2, %3 : index
  %dim_4 = memref.dim %arg4, %c0 : memref<?x2xi32>
  %5 = arith.maxui %4, %dim_4 : index
  %alloc_5 = memref.alloc(%dim_4) {alignment = 128 : i64} : memref<?xi32>
  %alloc_6 = memref.alloc(%dim_4) {alignment = 128 : i64} : memref<?x4xf32>
  %6 = arith.muli %dim_4, %c4 : index
  %7 = arith.maxui %5, %6 : index
  scf.parallel (%arg6) = (%c0) to (%7) step (%c512) {
    %8 = affine.min affine_map<(d0)[s0] -> (-d0 + s0, 512)>(%arg6)[%dim]
    scf.parallel (%arg7) = (%c0) to (%8) step (%c1) {
      %14 = arith.addi %arg7, %arg6 : index
      memref.store %c0_i32, %alloc[%14] : memref<?xi32>
      scf.yield
    }
    scf.parallel (%arg7) = (%c0) to (%8) step (%c1) {
      %14 = arith.addi %arg7, %arg6 : index
      scf.for %arg8 = %c0 to %c2 step %c1 {
        %15 = memref.load %arg0[%14, %arg8] : memref<?x2xi32>
        %16 = memref.load %alloc[%14] : memref<?xi32>
        %17 = arith.addi %16, %15 : i32
        memref.store %17, %alloc[%14] : memref<?xi32>
      }
      scf.yield
    }
    %9 = affine.min affine_map<(d0)[s0] -> (-d0 + s0, 512)>(%arg6)[%0]
    scf.parallel (%arg7) = (%c0) to (%9) step (%c1) {
      %14 = arith.addi %arg7, %arg6 : index
      %15 = arith.remsi %14, %c4 : index
      %16 = arith.divsi %14, %c4 : index
      %17 = memref.load %alloc[%16] : memref<?xi32>
      %18 = arith.index_cast %17 : i32 to index
      %19 = memref.load %arg1[%18, %15] : memref<?x4xf32>
      memref.store %19, %alloc_0[%16, %15] : memref<?x4xf32>
      scf.yield
    }
    %10 = affine.min affine_map<(d0)[s0] -> (-d0 + s0, 512)>(%arg6)[%dim_1]
    scf.parallel (%arg7) = (%c0) to (%10) step (%c1) {
      %14 = arith.addi %arg7, %arg6 : index
      memref.store %c0_i32, %alloc_2[%14] : memref<?xi32>
      scf.yield
    }
    scf.parallel (%arg7) = (%c0) to (%10) step (%c1) {
      %14 = arith.addi %arg7, %arg6 : index
      scf.for %arg8 = %c0 to %c2 step %c1 {
        %15 = memref.load %arg2[%14, %arg8] : memref<?x2xi32>
        %16 = memref.load %alloc_2[%14] : memref<?xi32>
        %17 = arith.addi %16, %15 : i32
        memref.store %17, %alloc_2[%14] : memref<?xi32>
      }
      scf.yield
    }
    %11 = affine.min affine_map<(d0)[s0] -> (-d0 + s0, 512)>(%arg6)[%3]
    scf.parallel (%arg7) = (%c0) to (%11) step (%c1) {
      %14 = arith.addi %arg7, %arg6 : index
      %15 = arith.remsi %14, %c4 : index
      %16 = arith.divsi %14, %c4 : index
      %17 = memref.load %alloc_2[%16] : memref<?xi32>
      %18 = arith.index_cast %17 : i32 to index
      %19 = memref.load %arg3[%18, %15] : memref<?x4xf32>
      memref.store %19, %alloc_3[%16, %15] : memref<?x4xf32>
      scf.yield
    }
    %12 = affine.min affine_map<(d0)[s0] -> (-d0 + s0, 512)>(%arg6)[%dim_4]
    scf.parallel (%arg7) = (%c0) to (%12) step (%c1) {
      %14 = arith.addi %arg7, %arg6 : index
      memref.store %c0_i32, %alloc_5[%14] : memref<?xi32>
      scf.yield
    }
    scf.parallel (%arg7) = (%c0) to (%12) step (%c1) {
      %14 = arith.addi %arg7, %arg6 : index
      scf.for %arg8 = %c0 to %c2 step %c1 {
        %15 = memref.load %arg4[%14, %arg8] : memref<?x2xi32>
        %16 = memref.load %alloc_5[%14] : memref<?xi32>
        %17 = arith.addi %16, %15 : i32
        memref.store %17, %alloc_5[%14] : memref<?xi32>
      }
      scf.yield
    }
    %13 = affine.min affine_map<(d0)[s0] -> (-d0 + s0, 512)>(%arg6)[%6]
    scf.parallel (%arg7) = (%c0) to (%13) step (%c1) {
      %14 = arith.addi %arg7, %arg6 : index
      %15 = arith.remsi %14, %c4 : index
      %16 = arith.divsi %14, %c4 : index
      %17 = memref.load %alloc_5[%16] : memref<?xi32>
      %18 = arith.index_cast %17 : i32 to index
      %19 = memref.load %arg5[%18, %15] : memref<?x4xf32>
      memref.store %19, %alloc_6[%16, %15] : memref<?x4xf32>
      scf.yield
    }
    scf.yield
  }
  return %alloc_0, %alloc_3, %alloc_6 : memref<?x4xf32>, memref<?x4xf32>, memref<?x4xf32>
}

// -----// IR Dump Before FuseKernelLaunchPass (fuse-kernel-launch) //----- //
#map = affine_map<(d0)[s0] -> (-d0 + s0, 512)>
module {
  func.func @cuda_kernel_0(%arg0: memref<?x2xi32> {input.fake_symbolic_shape = #tf_type.shape<137x2>, input.from = "7:0", input.has_one_use = true}, %arg1: memref<?x4xf32> {input.fake_symbolic_shape = #tf_type.shape<137x4>, input.from = "4:0", input.has_one_use = true}, %arg2: memref<?x2xi32> {input.fake_symbolic_shape = #tf_type.shape<137x2>, input.from = "8:0", input.has_one_use = true}, %arg3: memref<?x4xf32> {input.fake_symbolic_shape = #tf_type.shape<137x4>, input.from = "5:0", input.has_one_use = true}, %arg4: memref<?x2xi32> {input.fake_symbolic_shape = #tf_type.shape<137x2>, input.from = "9:0", input.has_one_use = true}, %arg5: memref<?x4xf32> {input.fake_symbolic_shape = #tf_type.shape<137x4>, input.from = "6:0", input.has_one_use = true}) -> (memref<?x4xf32>, memref<?x4xf32>, memref<?x4xf32>) attributes {BatchComputeFusion, _nano_compiler_group_idx = 0 : i64, _nano_compiler_op_idx = "10", _nano_compiler_v2, batch_compute_pattern = "FuseGatherV2OpPattern", llvm.emit_c_interface, tf_entry} {
    %c512 = arith.constant 512 : index
    %c0 = arith.constant 0 : index
    %c1 = arith.constant 1 : index
    %c2 = arith.constant 2 : index
    %c4 = arith.constant 4 : index
    %c0_i32 = arith.constant 0 : i32
    %dim = memref.dim %arg0, %c0 : memref<?x2xi32>
    %alloc = memref.alloc(%dim) {alignment = 128 : i64} : memref<?xi32>
    %alloc_0 = memref.alloc(%dim) {alignment = 128 : i64} : memref<?x4xf32>
    %0 = arith.muli %dim, %c4 : index
    %1 = arith.maxui %dim, %0 : index
    %dim_1 = memref.dim %arg2, %c0 : memref<?x2xi32>
    %2 = arith.maxui %1, %dim_1 : index
    %alloc_2 = memref.alloc(%dim_1) {alignment = 128 : i64} : memref<?xi32>
    %alloc_3 = memref.alloc(%dim_1) {alignment = 128 : i64} : memref<?x4xf32>
    %3 = arith.muli %dim_1, %c4 : index
    %4 = arith.maxui %2, %3 : index
    %dim_4 = memref.dim %arg4, %c0 : memref<?x2xi32>
    %5 = arith.maxui %4, %dim_4 : index
    %alloc_5 = memref.alloc(%dim_4) {alignment = 128 : i64} : memref<?xi32>
    %alloc_6 = memref.alloc(%dim_4) {alignment = 128 : i64} : memref<?x4xf32>
    %6 = arith.muli %dim_4, %c4 : index
    %7 = arith.maxui %5, %6 : index
    scf.parallel (%arg6) = (%c0) to (%7) step (%c512) {
      %8 = affine.min #map(%arg6)[%dim]
      scf.parallel (%arg7) = (%c0) to (%8) step (%c1) {
        %14 = arith.addi %arg7, %arg6 : index
        memref.store %c0_i32, %alloc[%14] : memref<?xi32>
        scf.yield
      }
      scf.parallel (%arg7) = (%c0) to (%8) step (%c1) {
        %14 = arith.addi %arg7, %arg6 : index
        scf.for %arg8 = %c0 to %c2 step %c1 {
          %15 = memref.load %arg0[%14, %arg8] : memref<?x2xi32>
          %16 = memref.load %alloc[%14] : memref<?xi32>
          %17 = arith.addi %16, %15 : i32
          memref.store %17, %alloc[%14] : memref<?xi32>
        }
        scf.yield
      }
      %9 = affine.min #map(%arg6)[%0]
      scf.parallel (%arg7) = (%c0) to (%9) step (%c1) {
        %14 = arith.addi %arg7, %arg6 : index
        %15 = arith.remsi %14, %c4 : index
        %16 = arith.divsi %14, %c4 : index
        %17 = memref.load %alloc[%16] : memref<?xi32>
        %18 = arith.index_cast %17 : i32 to index
        %19 = memref.load %arg1[%18, %15] : memref<?x4xf32>
        memref.store %19, %alloc_0[%16, %15] : memref<?x4xf32>
        scf.yield
      }
      %10 = affine.min #map(%arg6)[%dim_1]
      scf.parallel (%arg7) = (%c0) to (%10) step (%c1) {
        %14 = arith.addi %arg7, %arg6 : index
        memref.store %c0_i32, %alloc_2[%14] : memref<?xi32>
        scf.yield
      }
      scf.parallel (%arg7) = (%c0) to (%10) step (%c1) {
        %14 = arith.addi %arg7, %arg6 : index
        scf.for %arg8 = %c0 to %c2 step %c1 {
          %15 = memref.load %arg2[%14, %arg8] : memref<?x2xi32>
          %16 = memref.load %alloc_2[%14] : memref<?xi32>
          %17 = arith.addi %16, %15 : i32
          memref.store %17, %alloc_2[%14] : memref<?xi32>
        }
        scf.yield
      }
      %11 = affine.min #map(%arg6)[%3]
      scf.parallel (%arg7) = (%c0) to (%11) step (%c1) {
        %14 = arith.addi %arg7, %arg6 : index
        %15 = arith.remsi %14, %c4 : index
        %16 = arith.divsi %14, %c4 : index
        %17 = memref.load %alloc_2[%16] : memref<?xi32>
        %18 = arith.index_cast %17 : i32 to index
        %19 = memref.load %arg3[%18, %15] : memref<?x4xf32>
        memref.store %19, %alloc_3[%16, %15] : memref<?x4xf32>
        scf.yield
      }
      %12 = affine.min #map(%arg6)[%dim_4]
      scf.parallel (%arg7) = (%c0) to (%12) step (%c1) {
        %14 = arith.addi %arg7, %arg6 : index
        memref.store %c0_i32, %alloc_5[%14] : memref<?xi32>
        scf.yield
      }
      scf.parallel (%arg7) = (%c0) to (%12) step (%c1) {
        %14 = arith.addi %arg7, %arg6 : index
        scf.for %arg8 = %c0 to %c2 step %c1 {
          %15 = memref.load %arg4[%14, %arg8] : memref<?x2xi32>
          %16 = memref.load %alloc_5[%14] : memref<?xi32>
          %17 = arith.addi %16, %15 : i32
          memref.store %17, %alloc_5[%14] : memref<?xi32>
        }
        scf.yield
      }
      %13 = affine.min #map(%arg6)[%6]
      scf.parallel (%arg7) = (%c0) to (%13) step (%c1) {
        %14 = arith.addi %arg7, %arg6 : index
        %15 = arith.remsi %14, %c4 : index
        %16 = arith.divsi %14, %c4 : index
        %17 = memref.load %alloc_5[%16] : memref<?xi32>
        %18 = arith.index_cast %17 : i32 to index
        %19 = memref.load %arg5[%18, %15] : memref<?x4xf32>
        memref.store %19, %alloc_6[%16, %15] : memref<?x4xf32>
        scf.yield
      }
      scf.yield
    }
    return %alloc_0, %alloc_3, %alloc_6 : memref<?x4xf32>, memref<?x4xf32>, memref<?x4xf32>
  }
}


// -----// IR Dump After FuseKernelLaunchPass (fuse-kernel-launch) //----- //
#map = affine_map<(d0)[s0] -> (-d0 + s0, 512)>
module {
  func.func @cuda_kernel_0(%arg0: memref<?x2xi32> {input.fake_symbolic_shape = #tf_type.shape<137x2>, input.from = "7:0", input.has_one_use = true}, %arg1: memref<?x4xf32> {input.fake_symbolic_shape = #tf_type.shape<137x4>, input.from = "4:0", input.has_one_use = true}, %arg2: memref<?x2xi32> {input.fake_symbolic_shape = #tf_type.shape<137x2>, input.from = "8:0", input.has_one_use = true}, %arg3: memref<?x4xf32> {input.fake_symbolic_shape = #tf_type.shape<137x4>, input.from = "5:0", input.has_one_use = true}, %arg4: memref<?x2xi32> {input.fake_symbolic_shape = #tf_type.shape<137x2>, input.from = "9:0", input.has_one_use = true}, %arg5: memref<?x4xf32> {input.fake_symbolic_shape = #tf_type.shape<137x4>, input.from = "6:0", input.has_one_use = true}) -> (memref<?x4xf32>, memref<?x4xf32>, memref<?x4xf32>) attributes {BatchComputeFusion, _nano_compiler_group_idx = 0 : i64, _nano_compiler_kernel_size = 1 : i64, _nano_compiler_op_idx = "10", _nano_compiler_v2, batch_compute_pattern = "FuseGatherV2OpPattern", llvm.emit_c_interface, tf_entry} {
    %c512 = arith.constant 512 : index
    %c0 = arith.constant 0 : index
    %c1 = arith.constant 1 : index
    %c2 = arith.constant 2 : index
    %c4 = arith.constant 4 : index
    %c0_i32 = arith.constant 0 : i32
    %dim = memref.dim %arg0, %c0 : memref<?x2xi32>
    %alloc = memref.alloc(%dim) {alignment = 128 : i64} : memref<?xi32>
    %alloc_0 = memref.alloc(%dim) {alignment = 128 : i64} : memref<?x4xf32>
    %0 = arith.muli %dim, %c4 : index
    %1 = arith.maxui %dim, %0 : index
    %dim_1 = memref.dim %arg2, %c0 : memref<?x2xi32>
    %2 = arith.maxui %1, %dim_1 : index
    %alloc_2 = memref.alloc(%dim_1) {alignment = 128 : i64} : memref<?xi32>
    %alloc_3 = memref.alloc(%dim_1) {alignment = 128 : i64} : memref<?x4xf32>
    %3 = arith.muli %dim_1, %c4 : index
    %4 = arith.maxui %2, %3 : index
    %dim_4 = memref.dim %arg4, %c0 : memref<?x2xi32>
    %5 = arith.maxui %4, %dim_4 : index
    %alloc_5 = memref.alloc(%dim_4) {alignment = 128 : i64} : memref<?xi32>
    %alloc_6 = memref.alloc(%dim_4) {alignment = 128 : i64} : memref<?x4xf32>
    %6 = arith.muli %dim_4, %c4 : index
    %7 = arith.maxui %5, %6 : index
    scf.parallel (%arg6) = (%c0) to (%7) step (%c512) {
      %8 = affine.min #map(%arg6)[%dim]
      scf.parallel (%arg7) = (%c0) to (%8) step (%c1) {
        %14 = arith.addi %arg7, %arg6 : index
        memref.store %c0_i32, %alloc[%14] : memref<?xi32>
        scf.yield
      }
      scf.parallel (%arg7) = (%c0) to (%8) step (%c1) {
        %14 = arith.addi %arg7, %arg6 : index
        scf.for %arg8 = %c0 to %c2 step %c1 {
          %15 = memref.load %arg0[%14, %arg8] : memref<?x2xi32>
          %16 = memref.load %alloc[%14] : memref<?xi32>
          %17 = arith.addi %16, %15 : i32
          memref.store %17, %alloc[%14] : memref<?xi32>
        }
        scf.yield
      }
      %9 = affine.min #map(%arg6)[%0]
      scf.parallel (%arg7) = (%c0) to (%9) step (%c1) {
        %14 = arith.addi %arg7, %arg6 : index
        %15 = arith.remsi %14, %c4 : index
        %16 = arith.divsi %14, %c4 : index
        %17 = memref.load %alloc[%16] : memref<?xi32>
        %18 = arith.index_cast %17 : i32 to index
        %19 = memref.load %arg1[%18, %15] : memref<?x4xf32>
        memref.store %19, %alloc_0[%16, %15] : memref<?x4xf32>
        scf.yield
      }
      %10 = affine.min #map(%arg6)[%dim_1]
      scf.parallel (%arg7) = (%c0) to (%10) step (%c1) {
        %14 = arith.addi %arg7, %arg6 : index
        memref.store %c0_i32, %alloc_2[%14] : memref<?xi32>
        scf.yield
      }
      scf.parallel (%arg7) = (%c0) to (%10) step (%c1) {
        %14 = arith.addi %arg7, %arg6 : index
        scf.for %arg8 = %c0 to %c2 step %c1 {
          %15 = memref.load %arg2[%14, %arg8] : memref<?x2xi32>
          %16 = memref.load %alloc_2[%14] : memref<?xi32>
          %17 = arith.addi %16, %15 : i32
          memref.store %17, %alloc_2[%14] : memref<?xi32>
        }
        scf.yield
      }
      %11 = affine.min #map(%arg6)[%3]
      scf.parallel (%arg7) = (%c0) to (%11) step (%c1) {
        %14 = arith.addi %arg7, %arg6 : index
        %15 = arith.remsi %14, %c4 : index
        %16 = arith.divsi %14, %c4 : index
        %17 = memref.load %alloc_2[%16] : memref<?xi32>
        %18 = arith.index_cast %17 : i32 to index
        %19 = memref.load %arg3[%18, %15] : memref<?x4xf32>
        memref.store %19, %alloc_3[%16, %15] : memref<?x4xf32>
        scf.yield
      }
      %12 = affine.min #map(%arg6)[%dim_4]
      scf.parallel (%arg7) = (%c0) to (%12) step (%c1) {
        %14 = arith.addi %arg7, %arg6 : index
        memref.store %c0_i32, %alloc_5[%14] : memref<?xi32>
        scf.yield
      }
      scf.parallel (%arg7) = (%c0) to (%12) step (%c1) {
        %14 = arith.addi %arg7, %arg6 : index
        scf.for %arg8 = %c0 to %c2 step %c1 {
          %15 = memref.load %arg4[%14, %arg8] : memref<?x2xi32>
          %16 = memref.load %alloc_5[%14] : memref<?xi32>
          %17 = arith.addi %16, %15 : i32
          memref.store %17, %alloc_5[%14] : memref<?xi32>
        }
        scf.yield
      }
      %13 = affine.min #map(%arg6)[%6]
      scf.parallel (%arg7) = (%c0) to (%13) step (%c1) {
        %14 = arith.addi %arg7, %arg6 : index
        %15 = arith.remsi %14, %c4 : index
        %16 = arith.divsi %14, %c4 : index
        %17 = memref.load %alloc_5[%16] : memref<?xi32>
        %18 = arith.index_cast %17 : i32 to index
        %19 = memref.load %arg5[%18, %15] : memref<?x4xf32>
        memref.store %19, %alloc_6[%16, %15] : memref<?x4xf32>
        scf.yield
      }
      scf.yield
    }
    return %alloc_0, %alloc_3, %alloc_6 : memref<?x4xf32>, memref<?x4xf32>, memref<?x4xf32>
  }
}


// -----// IR Dump Before Canonicalizer (canonicalize) //----- //
func.func @cuda_kernel_0(%arg0: memref<?x2xi32> {input.fake_symbolic_shape = #tf_type.shape<137x2>, input.from = "7:0", input.has_one_use = true}, %arg1: memref<?x4xf32> {input.fake_symbolic_shape = #tf_type.shape<137x4>, input.from = "4:0", input.has_one_use = true}, %arg2: memref<?x2xi32> {input.fake_symbolic_shape = #tf_type.shape<137x2>, input.from = "8:0", input.has_one_use = true}, %arg3: memref<?x4xf32> {input.fake_symbolic_shape = #tf_type.shape<137x4>, input.from = "5:0", input.has_one_use = true}, %arg4: memref<?x2xi32> {input.fake_symbolic_shape = #tf_type.shape<137x2>, input.from = "9:0", input.has_one_use = true}, %arg5: memref<?x4xf32> {input.fake_symbolic_shape = #tf_type.shape<137x4>, input.from = "6:0", input.has_one_use = true}) -> (memref<?x4xf32>, memref<?x4xf32>, memref<?x4xf32>) attributes {BatchComputeFusion, _nano_compiler_group_idx = 0 : i64, _nano_compiler_kernel_size = 1 : i64, _nano_compiler_op_idx = "10", _nano_compiler_v2, batch_compute_pattern = "FuseGatherV2OpPattern", llvm.emit_c_interface, tf_entry} {
  %c512 = arith.constant 512 : index
  %c0 = arith.constant 0 : index
  %c1 = arith.constant 1 : index
  %c2 = arith.constant 2 : index
  %c4 = arith.constant 4 : index
  %c0_i32 = arith.constant 0 : i32
  %dim = memref.dim %arg0, %c0 : memref<?x2xi32>
  %alloc = memref.alloc(%dim) {alignment = 128 : i64} : memref<?xi32>
  %alloc_0 = memref.alloc(%dim) {alignment = 128 : i64} : memref<?x4xf32>
  %0 = arith.muli %dim, %c4 : index
  %1 = arith.maxui %dim, %0 : index
  %dim_1 = memref.dim %arg2, %c0 : memref<?x2xi32>
  %2 = arith.maxui %1, %dim_1 : index
  %alloc_2 = memref.alloc(%dim_1) {alignment = 128 : i64} : memref<?xi32>
  %alloc_3 = memref.alloc(%dim_1) {alignment = 128 : i64} : memref<?x4xf32>
  %3 = arith.muli %dim_1, %c4 : index
  %4 = arith.maxui %2, %3 : index
  %dim_4 = memref.dim %arg4, %c0 : memref<?x2xi32>
  %5 = arith.maxui %4, %dim_4 : index
  %alloc_5 = memref.alloc(%dim_4) {alignment = 128 : i64} : memref<?xi32>
  %alloc_6 = memref.alloc(%dim_4) {alignment = 128 : i64} : memref<?x4xf32>
  %6 = arith.muli %dim_4, %c4 : index
  %7 = arith.maxui %5, %6 : index
  scf.parallel (%arg6) = (%c0) to (%7) step (%c512) {
    %8 = affine.min affine_map<(d0)[s0] -> (-d0 + s0, 512)>(%arg6)[%dim]
    scf.parallel (%arg7) = (%c0) to (%8) step (%c1) {
      %14 = arith.addi %arg7, %arg6 : index
      memref.store %c0_i32, %alloc[%14] : memref<?xi32>
      scf.yield
    }
    scf.parallel (%arg7) = (%c0) to (%8) step (%c1) {
      %14 = arith.addi %arg7, %arg6 : index
      scf.for %arg8 = %c0 to %c2 step %c1 {
        %15 = memref.load %arg0[%14, %arg8] : memref<?x2xi32>
        %16 = memref.load %alloc[%14] : memref<?xi32>
        %17 = arith.addi %16, %15 : i32
        memref.store %17, %alloc[%14] : memref<?xi32>
      }
      scf.yield
    }
    %9 = affine.min affine_map<(d0)[s0] -> (-d0 + s0, 512)>(%arg6)[%0]
    scf.parallel (%arg7) = (%c0) to (%9) step (%c1) {
      %14 = arith.addi %arg7, %arg6 : index
      %15 = arith.remsi %14, %c4 : index
      %16 = arith.divsi %14, %c4 : index
      %17 = memref.load %alloc[%16] : memref<?xi32>
      %18 = arith.index_cast %17 : i32 to index
      %19 = memref.load %arg1[%18, %15] : memref<?x4xf32>
      memref.store %19, %alloc_0[%16, %15] : memref<?x4xf32>
      scf.yield
    }
    %10 = affine.min affine_map<(d0)[s0] -> (-d0 + s0, 512)>(%arg6)[%dim_1]
    scf.parallel (%arg7) = (%c0) to (%10) step (%c1) {
      %14 = arith.addi %arg7, %arg6 : index
      memref.store %c0_i32, %alloc_2[%14] : memref<?xi32>
      scf.yield
    }
    scf.parallel (%arg7) = (%c0) to (%10) step (%c1) {
      %14 = arith.addi %arg7, %arg6 : index
      scf.for %arg8 = %c0 to %c2 step %c1 {
        %15 = memref.load %arg2[%14, %arg8] : memref<?x2xi32>
        %16 = memref.load %alloc_2[%14] : memref<?xi32>
        %17 = arith.addi %16, %15 : i32
        memref.store %17, %alloc_2[%14] : memref<?xi32>
      }
      scf.yield
    }
    %11 = affine.min affine_map<(d0)[s0] -> (-d0 + s0, 512)>(%arg6)[%3]
    scf.parallel (%arg7) = (%c0) to (%11) step (%c1) {
      %14 = arith.addi %arg7, %arg6 : index
      %15 = arith.remsi %14, %c4 : index
      %16 = arith.divsi %14, %c4 : index
      %17 = memref.load %alloc_2[%16] : memref<?xi32>
      %18 = arith.index_cast %17 : i32 to index
      %19 = memref.load %arg3[%18, %15] : memref<?x4xf32>
      memref.store %19, %alloc_3[%16, %15] : memref<?x4xf32>
      scf.yield
    }
    %12 = affine.min affine_map<(d0)[s0] -> (-d0 + s0, 512)>(%arg6)[%dim_4]
    scf.parallel (%arg7) = (%c0) to (%12) step (%c1) {
      %14 = arith.addi %arg7, %arg6 : index
      memref.store %c0_i32, %alloc_5[%14] : memref<?xi32>
      scf.yield
    }
    scf.parallel (%arg7) = (%c0) to (%12) step (%c1) {
      %14 = arith.addi %arg7, %arg6 : index
      scf.for %arg8 = %c0 to %c2 step %c1 {
        %15 = memref.load %arg4[%14, %arg8] : memref<?x2xi32>
        %16 = memref.load %alloc_5[%14] : memref<?xi32>
        %17 = arith.addi %16, %15 : i32
        memref.store %17, %alloc_5[%14] : memref<?xi32>
      }
      scf.yield
    }
    %13 = affine.min affine_map<(d0)[s0] -> (-d0 + s0, 512)>(%arg6)[%6]
    scf.parallel (%arg7) = (%c0) to (%13) step (%c1) {
      %14 = arith.addi %arg7, %arg6 : index
      %15 = arith.remsi %14, %c4 : index
      %16 = arith.divsi %14, %c4 : index
      %17 = memref.load %alloc_5[%16] : memref<?xi32>
      %18 = arith.index_cast %17 : i32 to index
      %19 = memref.load %arg5[%18, %15] : memref<?x4xf32>
      memref.store %19, %alloc_6[%16, %15] : memref<?x4xf32>
      scf.yield
    }
    scf.yield
  }
  return %alloc_0, %alloc_3, %alloc_6 : memref<?x4xf32>, memref<?x4xf32>, memref<?x4xf32>
}

// -----// IR Dump After Canonicalizer (canonicalize) //----- //
func.func @cuda_kernel_0(%arg0: memref<?x2xi32> {input.fake_symbolic_shape = #tf_type.shape<137x2>, input.from = "7:0", input.has_one_use = true}, %arg1: memref<?x4xf32> {input.fake_symbolic_shape = #tf_type.shape<137x4>, input.from = "4:0", input.has_one_use = true}, %arg2: memref<?x2xi32> {input.fake_symbolic_shape = #tf_type.shape<137x2>, input.from = "8:0", input.has_one_use = true}, %arg3: memref<?x4xf32> {input.fake_symbolic_shape = #tf_type.shape<137x4>, input.from = "5:0", input.has_one_use = true}, %arg4: memref<?x2xi32> {input.fake_symbolic_shape = #tf_type.shape<137x2>, input.from = "9:0", input.has_one_use = true}, %arg5: memref<?x4xf32> {input.fake_symbolic_shape = #tf_type.shape<137x4>, input.from = "6:0", input.has_one_use = true}) -> (memref<?x4xf32>, memref<?x4xf32>, memref<?x4xf32>) attributes {BatchComputeFusion, _nano_compiler_group_idx = 0 : i64, _nano_compiler_kernel_size = 1 : i64, _nano_compiler_op_idx = "10", _nano_compiler_v2, batch_compute_pattern = "FuseGatherV2OpPattern", llvm.emit_c_interface, tf_entry} {
  %c512 = arith.constant 512 : index
  %c0 = arith.constant 0 : index
  %c1 = arith.constant 1 : index
  %c2 = arith.constant 2 : index
  %c4 = arith.constant 4 : index
  %c0_i32 = arith.constant 0 : i32
  %dim = memref.dim %arg0, %c0 : memref<?x2xi32>
  %alloc = memref.alloc(%dim) {alignment = 128 : i64} : memref<?xi32>
  %alloc_0 = memref.alloc(%dim) {alignment = 128 : i64} : memref<?x4xf32>
  %0 = arith.muli %dim, %c4 : index
  %1 = arith.maxui %dim, %0 : index
  %dim_1 = memref.dim %arg2, %c0 : memref<?x2xi32>
  %2 = arith.maxui %1, %dim_1 : index
  %alloc_2 = memref.alloc(%dim_1) {alignment = 128 : i64} : memref<?xi32>
  %alloc_3 = memref.alloc(%dim_1) {alignment = 128 : i64} : memref<?x4xf32>
  %3 = arith.muli %dim_1, %c4 : index
  %4 = arith.maxui %2, %3 : index
  %dim_4 = memref.dim %arg4, %c0 : memref<?x2xi32>
  %5 = arith.maxui %4, %dim_4 : index
  %alloc_5 = memref.alloc(%dim_4) {alignment = 128 : i64} : memref<?xi32>
  %alloc_6 = memref.alloc(%dim_4) {alignment = 128 : i64} : memref<?x4xf32>
  %6 = arith.muli %dim_4, %c4 : index
  %7 = arith.maxui %5, %6 : index
  scf.parallel (%arg6) = (%c0) to (%7) step (%c512) {
    %8 = affine.min affine_map<(d0)[s0] -> (-d0 + s0, 512)>(%arg6)[%dim]
    scf.parallel (%arg7) = (%c0) to (%8) step (%c1) {
      %14 = arith.addi %arg7, %arg6 : index
      memref.store %c0_i32, %alloc[%14] : memref<?xi32>
      scf.yield
    }
    scf.parallel (%arg7) = (%c0) to (%8) step (%c1) {
      %14 = arith.addi %arg7, %arg6 : index
      scf.for %arg8 = %c0 to %c2 step %c1 {
        %15 = memref.load %arg0[%14, %arg8] : memref<?x2xi32>
        %16 = memref.load %alloc[%14] : memref<?xi32>
        %17 = arith.addi %16, %15 : i32
        memref.store %17, %alloc[%14] : memref<?xi32>
      }
      scf.yield
    }
    %9 = affine.min affine_map<(d0)[s0] -> (-d0 + s0, 512)>(%arg6)[%0]
    scf.parallel (%arg7) = (%c0) to (%9) step (%c1) {
      %14 = arith.addi %arg7, %arg6 : index
      %15 = arith.remsi %14, %c4 : index
      %16 = arith.divsi %14, %c4 : index
      %17 = memref.load %alloc[%16] : memref<?xi32>
      %18 = arith.index_cast %17 : i32 to index
      %19 = memref.load %arg1[%18, %15] : memref<?x4xf32>
      memref.store %19, %alloc_0[%16, %15] : memref<?x4xf32>
      scf.yield
    }
    %10 = affine.min affine_map<(d0)[s0] -> (-d0 + s0, 512)>(%arg6)[%dim_1]
    scf.parallel (%arg7) = (%c0) to (%10) step (%c1) {
      %14 = arith.addi %arg7, %arg6 : index
      memref.store %c0_i32, %alloc_2[%14] : memref<?xi32>
      scf.yield
    }
    scf.parallel (%arg7) = (%c0) to (%10) step (%c1) {
      %14 = arith.addi %arg7, %arg6 : index
      scf.for %arg8 = %c0 to %c2 step %c1 {
        %15 = memref.load %arg2[%14, %arg8] : memref<?x2xi32>
        %16 = memref.load %alloc_2[%14] : memref<?xi32>
        %17 = arith.addi %16, %15 : i32
        memref.store %17, %alloc_2[%14] : memref<?xi32>
      }
      scf.yield
    }
    %11 = affine.min affine_map<(d0)[s0] -> (-d0 + s0, 512)>(%arg6)[%3]
    scf.parallel (%arg7) = (%c0) to (%11) step (%c1) {
      %14 = arith.addi %arg7, %arg6 : index
      %15 = arith.remsi %14, %c4 : index
      %16 = arith.divsi %14, %c4 : index
      %17 = memref.load %alloc_2[%16] : memref<?xi32>
      %18 = arith.index_cast %17 : i32 to index
      %19 = memref.load %arg3[%18, %15] : memref<?x4xf32>
      memref.store %19, %alloc_3[%16, %15] : memref<?x4xf32>
      scf.yield
    }
    %12 = affine.min affine_map<(d0)[s0] -> (-d0 + s0, 512)>(%arg6)[%dim_4]
    scf.parallel (%arg7) = (%c0) to (%12) step (%c1) {
      %14 = arith.addi %arg7, %arg6 : index
      memref.store %c0_i32, %alloc_5[%14] : memref<?xi32>
      scf.yield
    }
    scf.parallel (%arg7) = (%c0) to (%12) step (%c1) {
      %14 = arith.addi %arg7, %arg6 : index
      scf.for %arg8 = %c0 to %c2 step %c1 {
        %15 = memref.load %arg4[%14, %arg8] : memref<?x2xi32>
        %16 = memref.load %alloc_5[%14] : memref<?xi32>
        %17 = arith.addi %16, %15 : i32
        memref.store %17, %alloc_5[%14] : memref<?xi32>
      }
      scf.yield
    }
    %13 = affine.min affine_map<(d0)[s0] -> (-d0 + s0, 512)>(%arg6)[%6]
    scf.parallel (%arg7) = (%c0) to (%13) step (%c1) {
      %14 = arith.addi %arg7, %arg6 : index
      %15 = arith.remsi %14, %c4 : index
      %16 = arith.divsi %14, %c4 : index
      %17 = memref.load %alloc_5[%16] : memref<?xi32>
      %18 = arith.index_cast %17 : i32 to index
      %19 = memref.load %arg5[%18, %15] : memref<?x4xf32>
      memref.store %19, %alloc_6[%16, %15] : memref<?x4xf32>
      scf.yield
    }
    scf.yield
  }
  return %alloc_0, %alloc_3, %alloc_6 : memref<?x4xf32>, memref<?x4xf32>, memref<?x4xf32>
}

// -----// IR Dump Before CSE (cse) //----- //
func.func @cuda_kernel_0(%arg0: memref<?x2xi32> {input.fake_symbolic_shape = #tf_type.shape<137x2>, input.from = "7:0", input.has_one_use = true}, %arg1: memref<?x4xf32> {input.fake_symbolic_shape = #tf_type.shape<137x4>, input.from = "4:0", input.has_one_use = true}, %arg2: memref<?x2xi32> {input.fake_symbolic_shape = #tf_type.shape<137x2>, input.from = "8:0", input.has_one_use = true}, %arg3: memref<?x4xf32> {input.fake_symbolic_shape = #tf_type.shape<137x4>, input.from = "5:0", input.has_one_use = true}, %arg4: memref<?x2xi32> {input.fake_symbolic_shape = #tf_type.shape<137x2>, input.from = "9:0", input.has_one_use = true}, %arg5: memref<?x4xf32> {input.fake_symbolic_shape = #tf_type.shape<137x4>, input.from = "6:0", input.has_one_use = true}) -> (memref<?x4xf32>, memref<?x4xf32>, memref<?x4xf32>) attributes {BatchComputeFusion, _nano_compiler_group_idx = 0 : i64, _nano_compiler_kernel_size = 1 : i64, _nano_compiler_op_idx = "10", _nano_compiler_v2, batch_compute_pattern = "FuseGatherV2OpPattern", llvm.emit_c_interface, tf_entry} {
  %c512 = arith.constant 512 : index
  %c0 = arith.constant 0 : index
  %c1 = arith.constant 1 : index
  %c2 = arith.constant 2 : index
  %c4 = arith.constant 4 : index
  %c0_i32 = arith.constant 0 : i32
  %dim = memref.dim %arg0, %c0 : memref<?x2xi32>
  %alloc = memref.alloc(%dim) {alignment = 128 : i64} : memref<?xi32>
  %alloc_0 = memref.alloc(%dim) {alignment = 128 : i64} : memref<?x4xf32>
  %0 = arith.muli %dim, %c4 : index
  %1 = arith.maxui %dim, %0 : index
  %dim_1 = memref.dim %arg2, %c0 : memref<?x2xi32>
  %2 = arith.maxui %1, %dim_1 : index
  %alloc_2 = memref.alloc(%dim_1) {alignment = 128 : i64} : memref<?xi32>
  %alloc_3 = memref.alloc(%dim_1) {alignment = 128 : i64} : memref<?x4xf32>
  %3 = arith.muli %dim_1, %c4 : index
  %4 = arith.maxui %2, %3 : index
  %dim_4 = memref.dim %arg4, %c0 : memref<?x2xi32>
  %5 = arith.maxui %4, %dim_4 : index
  %alloc_5 = memref.alloc(%dim_4) {alignment = 128 : i64} : memref<?xi32>
  %alloc_6 = memref.alloc(%dim_4) {alignment = 128 : i64} : memref<?x4xf32>
  %6 = arith.muli %dim_4, %c4 : index
  %7 = arith.maxui %5, %6 : index
  scf.parallel (%arg6) = (%c0) to (%7) step (%c512) {
    %8 = affine.min affine_map<(d0)[s0] -> (-d0 + s0, 512)>(%arg6)[%dim]
    scf.parallel (%arg7) = (%c0) to (%8) step (%c1) {
      %14 = arith.addi %arg7, %arg6 : index
      memref.store %c0_i32, %alloc[%14] : memref<?xi32>
      scf.yield
    }
    scf.parallel (%arg7) = (%c0) to (%8) step (%c1) {
      %14 = arith.addi %arg7, %arg6 : index
      scf.for %arg8 = %c0 to %c2 step %c1 {
        %15 = memref.load %arg0[%14, %arg8] : memref<?x2xi32>
        %16 = memref.load %alloc[%14] : memref<?xi32>
        %17 = arith.addi %16, %15 : i32
        memref.store %17, %alloc[%14] : memref<?xi32>
      }
      scf.yield
    }
    %9 = affine.min affine_map<(d0)[s0] -> (-d0 + s0, 512)>(%arg6)[%0]
    scf.parallel (%arg7) = (%c0) to (%9) step (%c1) {
      %14 = arith.addi %arg7, %arg6 : index
      %15 = arith.remsi %14, %c4 : index
      %16 = arith.divsi %14, %c4 : index
      %17 = memref.load %alloc[%16] : memref<?xi32>
      %18 = arith.index_cast %17 : i32 to index
      %19 = memref.load %arg1[%18, %15] : memref<?x4xf32>
      memref.store %19, %alloc_0[%16, %15] : memref<?x4xf32>
      scf.yield
    }
    %10 = affine.min affine_map<(d0)[s0] -> (-d0 + s0, 512)>(%arg6)[%dim_1]
    scf.parallel (%arg7) = (%c0) to (%10) step (%c1) {
      %14 = arith.addi %arg7, %arg6 : index
      memref.store %c0_i32, %alloc_2[%14] : memref<?xi32>
      scf.yield
    }
    scf.parallel (%arg7) = (%c0) to (%10) step (%c1) {
      %14 = arith.addi %arg7, %arg6 : index
      scf.for %arg8 = %c0 to %c2 step %c1 {
        %15 = memref.load %arg2[%14, %arg8] : memref<?x2xi32>
        %16 = memref.load %alloc_2[%14] : memref<?xi32>
        %17 = arith.addi %16, %15 : i32
        memref.store %17, %alloc_2[%14] : memref<?xi32>
      }
      scf.yield
    }
    %11 = affine.min affine_map<(d0)[s0] -> (-d0 + s0, 512)>(%arg6)[%3]
    scf.parallel (%arg7) = (%c0) to (%11) step (%c1) {
      %14 = arith.addi %arg7, %arg6 : index
      %15 = arith.remsi %14, %c4 : index
      %16 = arith.divsi %14, %c4 : index
      %17 = memref.load %alloc_2[%16] : memref<?xi32>
      %18 = arith.index_cast %17 : i32 to index
      %19 = memref.load %arg3[%18, %15] : memref<?x4xf32>
      memref.store %19, %alloc_3[%16, %15] : memref<?x4xf32>
      scf.yield
    }
    %12 = affine.min affine_map<(d0)[s0] -> (-d0 + s0, 512)>(%arg6)[%dim_4]
    scf.parallel (%arg7) = (%c0) to (%12) step (%c1) {
      %14 = arith.addi %arg7, %arg6 : index
      memref.store %c0_i32, %alloc_5[%14] : memref<?xi32>
      scf.yield
    }
    scf.parallel (%arg7) = (%c0) to (%12) step (%c1) {
      %14 = arith.addi %arg7, %arg6 : index
      scf.for %arg8 = %c0 to %c2 step %c1 {
        %15 = memref.load %arg4[%14, %arg8] : memref<?x2xi32>
        %16 = memref.load %alloc_5[%14] : memref<?xi32>
        %17 = arith.addi %16, %15 : i32
        memref.store %17, %alloc_5[%14] : memref<?xi32>
      }
      scf.yield
    }
    %13 = affine.min affine_map<(d0)[s0] -> (-d0 + s0, 512)>(%arg6)[%6]
    scf.parallel (%arg7) = (%c0) to (%13) step (%c1) {
      %14 = arith.addi %arg7, %arg6 : index
      %15 = arith.remsi %14, %c4 : index
      %16 = arith.divsi %14, %c4 : index
      %17 = memref.load %alloc_5[%16] : memref<?xi32>
      %18 = arith.index_cast %17 : i32 to index
      %19 = memref.load %arg5[%18, %15] : memref<?x4xf32>
      memref.store %19, %alloc_6[%16, %15] : memref<?x4xf32>
      scf.yield
    }
    scf.yield
  }
  return %alloc_0, %alloc_3, %alloc_6 : memref<?x4xf32>, memref<?x4xf32>, memref<?x4xf32>
}

// -----// IR Dump After CSE (cse) //----- //
func.func @cuda_kernel_0(%arg0: memref<?x2xi32> {input.fake_symbolic_shape = #tf_type.shape<137x2>, input.from = "7:0", input.has_one_use = true}, %arg1: memref<?x4xf32> {input.fake_symbolic_shape = #tf_type.shape<137x4>, input.from = "4:0", input.has_one_use = true}, %arg2: memref<?x2xi32> {input.fake_symbolic_shape = #tf_type.shape<137x2>, input.from = "8:0", input.has_one_use = true}, %arg3: memref<?x4xf32> {input.fake_symbolic_shape = #tf_type.shape<137x4>, input.from = "5:0", input.has_one_use = true}, %arg4: memref<?x2xi32> {input.fake_symbolic_shape = #tf_type.shape<137x2>, input.from = "9:0", input.has_one_use = true}, %arg5: memref<?x4xf32> {input.fake_symbolic_shape = #tf_type.shape<137x4>, input.from = "6:0", input.has_one_use = true}) -> (memref<?x4xf32>, memref<?x4xf32>, memref<?x4xf32>) attributes {BatchComputeFusion, _nano_compiler_group_idx = 0 : i64, _nano_compiler_kernel_size = 1 : i64, _nano_compiler_op_idx = "10", _nano_compiler_v2, batch_compute_pattern = "FuseGatherV2OpPattern", llvm.emit_c_interface, tf_entry} {
  %c512 = arith.constant 512 : index
  %c0 = arith.constant 0 : index
  %c1 = arith.constant 1 : index
  %c2 = arith.constant 2 : index
  %c4 = arith.constant 4 : index
  %c0_i32 = arith.constant 0 : i32
  %dim = memref.dim %arg0, %c0 : memref<?x2xi32>
  %alloc = memref.alloc(%dim) {alignment = 128 : i64} : memref<?xi32>
  %alloc_0 = memref.alloc(%dim) {alignment = 128 : i64} : memref<?x4xf32>
  %0 = arith.muli %dim, %c4 : index
  %1 = arith.maxui %dim, %0 : index
  %dim_1 = memref.dim %arg2, %c0 : memref<?x2xi32>
  %2 = arith.maxui %1, %dim_1 : index
  %alloc_2 = memref.alloc(%dim_1) {alignment = 128 : i64} : memref<?xi32>
  %alloc_3 = memref.alloc(%dim_1) {alignment = 128 : i64} : memref<?x4xf32>
  %3 = arith.muli %dim_1, %c4 : index
  %4 = arith.maxui %2, %3 : index
  %dim_4 = memref.dim %arg4, %c0 : memref<?x2xi32>
  %5 = arith.maxui %4, %dim_4 : index
  %alloc_5 = memref.alloc(%dim_4) {alignment = 128 : i64} : memref<?xi32>
  %alloc_6 = memref.alloc(%dim_4) {alignment = 128 : i64} : memref<?x4xf32>
  %6 = arith.muli %dim_4, %c4 : index
  %7 = arith.maxui %5, %6 : index
  scf.parallel (%arg6) = (%c0) to (%7) step (%c512) {
    %8 = affine.min affine_map<(d0)[s0] -> (-d0 + s0, 512)>(%arg6)[%dim]
    scf.parallel (%arg7) = (%c0) to (%8) step (%c1) {
      %14 = arith.addi %arg7, %arg6 : index
      memref.store %c0_i32, %alloc[%14] : memref<?xi32>
      scf.yield
    }
    scf.parallel (%arg7) = (%c0) to (%8) step (%c1) {
      %14 = arith.addi %arg7, %arg6 : index
      scf.for %arg8 = %c0 to %c2 step %c1 {
        %15 = memref.load %arg0[%14, %arg8] : memref<?x2xi32>
        %16 = memref.load %alloc[%14] : memref<?xi32>
        %17 = arith.addi %16, %15 : i32
        memref.store %17, %alloc[%14] : memref<?xi32>
      }
      scf.yield
    }
    %9 = affine.min affine_map<(d0)[s0] -> (-d0 + s0, 512)>(%arg6)[%0]
    scf.parallel (%arg7) = (%c0) to (%9) step (%c1) {
      %14 = arith.addi %arg7, %arg6 : index
      %15 = arith.remsi %14, %c4 : index
      %16 = arith.divsi %14, %c4 : index
      %17 = memref.load %alloc[%16] : memref<?xi32>
      %18 = arith.index_cast %17 : i32 to index
      %19 = memref.load %arg1[%18, %15] : memref<?x4xf32>
      memref.store %19, %alloc_0[%16, %15] : memref<?x4xf32>
      scf.yield
    }
    %10 = affine.min affine_map<(d0)[s0] -> (-d0 + s0, 512)>(%arg6)[%dim_1]
    scf.parallel (%arg7) = (%c0) to (%10) step (%c1) {
      %14 = arith.addi %arg7, %arg6 : index
      memref.store %c0_i32, %alloc_2[%14] : memref<?xi32>
      scf.yield
    }
    scf.parallel (%arg7) = (%c0) to (%10) step (%c1) {
      %14 = arith.addi %arg7, %arg6 : index
      scf.for %arg8 = %c0 to %c2 step %c1 {
        %15 = memref.load %arg2[%14, %arg8] : memref<?x2xi32>
        %16 = memref.load %alloc_2[%14] : memref<?xi32>
        %17 = arith.addi %16, %15 : i32
        memref.store %17, %alloc_2[%14] : memref<?xi32>
      }
      scf.yield
    }
    %11 = affine.min affine_map<(d0)[s0] -> (-d0 + s0, 512)>(%arg6)[%3]
    scf.parallel (%arg7) = (%c0) to (%11) step (%c1) {
      %14 = arith.addi %arg7, %arg6 : index
      %15 = arith.remsi %14, %c4 : index
      %16 = arith.divsi %14, %c4 : index
      %17 = memref.load %alloc_2[%16] : memref<?xi32>
      %18 = arith.index_cast %17 : i32 to index
      %19 = memref.load %arg3[%18, %15] : memref<?x4xf32>
      memref.store %19, %alloc_3[%16, %15] : memref<?x4xf32>
      scf.yield
    }
    %12 = affine.min affine_map<(d0)[s0] -> (-d0 + s0, 512)>(%arg6)[%dim_4]
    scf.parallel (%arg7) = (%c0) to (%12) step (%c1) {
      %14 = arith.addi %arg7, %arg6 : index
      memref.store %c0_i32, %alloc_5[%14] : memref<?xi32>
      scf.yield
    }
    scf.parallel (%arg7) = (%c0) to (%12) step (%c1) {
      %14 = arith.addi %arg7, %arg6 : index
      scf.for %arg8 = %c0 to %c2 step %c1 {
        %15 = memref.load %arg4[%14, %arg8] : memref<?x2xi32>
        %16 = memref.load %alloc_5[%14] : memref<?xi32>
        %17 = arith.addi %16, %15 : i32
        memref.store %17, %alloc_5[%14] : memref<?xi32>
      }
      scf.yield
    }
    %13 = affine.min affine_map<(d0)[s0] -> (-d0 + s0, 512)>(%arg6)[%6]
    scf.parallel (%arg7) = (%c0) to (%13) step (%c1) {
      %14 = arith.addi %arg7, %arg6 : index
      %15 = arith.remsi %14, %c4 : index
      %16 = arith.divsi %14, %c4 : index
      %17 = memref.load %alloc_5[%16] : memref<?xi32>
      %18 = arith.index_cast %17 : i32 to index
      %19 = memref.load %arg5[%18, %15] : memref<?x4xf32>
      memref.store %19, %alloc_6[%16, %15] : memref<?x4xf32>
      scf.yield
    }
    scf.yield
  }
  return %alloc_0, %alloc_3, %alloc_6 : memref<?x4xf32>, memref<?x4xf32>, memref<?x4xf32>
}

